logs/EXP1_AssortmentNN/EXP1_AssortmentNN_epoch4.pth (torch, 24443 bytes, 12 tensors)

weight f4 [100, 20]
0	0xbe7ad950	-0.2449696
1	0xbcc5caf8	-0.024144635
2	0xbdf3346e	-0.118752345
3	0xbd89bbd1	-0.06725276
4	0xbe410fdf	-0.1885371
5	0x3db2f7b0	0.08738649
6	0xbe423adc	-0.18967766
7	0xbc491602	-0.0122733135
8	0x3db64135	0.08899156
9	0xbd8004be	-0.062509045
10	0x3e003d19	0.12523307
11	0x3d0f013b	0.034913283
12	0x3df97927	0.12181311
13	0x3e03f3bf	0.1288595
14	0xbddc203d	-0.107483365
15	0x3d82351b	0.06357785
16	0xbdd3d023	-0.10342433
17	0x3d93f8d3	0.07225194
18	0xbe02c6fd	-0.1277122
19	0x3d928200	0.07153702
20	0x3d5ba0f2	0.053620286
21	0xbd9631c8	-0.07333714
22	0xbe039ccd	-0.12852784
23	0x3d397cd9	0.04528508
24	0x3e6e5c66	0.23277435
25	0x3df31b26	0.118704125
26	0xbd422446	-0.047397874
27	0xbbed82fd	-0.007248281
28	0x3de47c90	0.11156571
29	0xbe26d810	-0.16293359
30	0x3d64adf5	0.05582996
31	0xbd95c1b2	-0.07312335
32	0x3de75446	0.11295371
33	0xbd52636c	-0.051364347
34	0xbc084f1f	-0.008319645
35	0x3db193c3	0.086707614
36	0x3e0e6b16	0.13908038
37	0xbd866ef2	-0.0656413
38	0x3e4b83c0	0.19874477
39	0xbe3e4e67	-0.18584596
40	0xbd29e71c	-0.04148017
41	0xbe700b01	-0.23441698
42	0x3c1fded9	0.009757721
43	0x3d0fdef7	0.035124745
44	0xbdddf608	-0.10837942
45	0x3dbf6cea	0.093469456
46	0xbd18e1e4	-0.0373248
47	0xbe43c283	-0.19117169
48	0x3e3598fb	0.17734139
49	0x3e05a564	0.13051373
50	0x3dee1090	0.11624253
51	0x3e15302f	0.14569162
52	0x3db919b8	0.090381086
53	0x3dd22b38	0.102621496
54	0x3e401d68	0.18761218
55	0xbce5c96b	-0.028050145
56	0xbe3d7e6d	-0.18505259
57	0xbe029547	-0.12752257
58	0xbd28e43d	-0.04123329
59	0xbc538c8c	-0.012911927
60	0xbc746836	-0.014917424
61	0x3e0844ed	0.13307543
62	0x3d93e30d	0.07221041
63	0xbe2597e7	-0.16171227
64	0xbd7499fc	-0.059717163
65	0xbd07bced	-0.033139158
66	0x3e04efe8	0.12982142
67	0xbd93b267	-0.07211762
68	0xbde8d44a	-0.11368616
69	0xbd42a699	-0.04752216
70	0xbd92f15f	-0.07174944
71	0xbd526b07	-0.0513716
72	0xbe56bb27	-0.2096983
73	0x3e4c6f18	0.19964254
74	0x3e094867	0.13406526
75	0xbdeb400b	-0.114868246
76	0xbe2c1b4f	-0.16807292
77	0x3cfdb15b	0.030968359
78	0x3dd74b54	0.105124146
79	0xbe10e3d8	-0.14149415
80	0xbdf8615f	-0.12127947
81	0x3db89049	0.09011895
82	0xbe122f28	-0.14275801
83	0xbc8e4f0f	-0.017371682
84	0xbe3563be	-0.1771383
85	0x3e38668d	0.1800787
86	0x3e13a428	0.1441809
87	0xbe4c198c	-0.1993162
88	0xbdfb6c9f	-0.12276577
89	0x3db55108	0.08853346
90	0x3afd1df4	0.0019311295
91	0x3cec64bb	0.028856626
92	0xbe31f8d0	-0.1738007
93	0xbe228311	-0.1587031
94	0x3dab036a	0.083502606
95	0xbe3136c3	-0.17306046
96	0xbd69835d	-0.057010043
97	0x3da46e4b	0.08028849
98	0x3df2a024	0.11846951
99	0xbcb1e2ec	-0.02171465
100	0x3ca8716a	0.020561893
101	0x3dbda58e	0.09260093
102	0xbd291219	-0.041277025
103	0xbd5b08b2	-0.05347509
104	0x3e49a093	0.1969016
105	0x3e4d5000	0.20050049
106	0x3dc763cc	0.097358316
107	0xbdf77feb	-0.12084945
108	0xbe55d170	-0.20880675
109	0xbe618e81	-0.22027017
110	0xbc08aeb6	-0.008342436
111	0xbddfba49	-0.10924203
112	0xbd78a105	-0.060700435
113	0xbd4486a4	-0.047979966
114	0x3e4935a2	0.19649366
115	0x3e4b4113	0.19849043
116	0xbcb52b8f	-0.022115497
117	0xbd893300	-0.066991806
118	0x3dc99a3f	0.09843873
119	0xbd4edbc3	-0.05050255
120	0xbe6cfdb5	-0.23143657
121	0x3d6c38ca	0.057671346
122	0x3e6218bd	0.2207975
123	0xbe4671f3	-0.19379406
124	0xbd68b83c	-0.056816325
125	0x3c3417e4	0.010992024
126	0xbe20a1e9	-0.15686764
127	0xbe3f3d0a	-0.18675628
128	0x3e37f9d1	0.17966391
129	0xbd8ac29c	-0.067754
130	0x3e033944	0.12814814
131	0xb9784d9e	-0.00023680038
132	0x3da7cc72	0.08193292
133	0xbe2046ab	-0.15651958
134	0xbd4ef9d9	-0.050531242
135	0x3e11f6c4	0.1425429
136	0x3dc720ac	0.097230285
137	0xbd614d17	-0.05500516
138	0x3b067aaa	0.002051989
139	0x3e27a7c5	0.16372593
140	0xbe28239c	-0.16419834
141	0x3e0e30b4	0.13885766
142	0xbd23476d	-0.03986304
143	0xbd2dc9a3	-0.042428624
144	0x3dada7e6	0.0847929
145	0xbe411e7d	-0.18859287
146	0xbb61411e	-0.0034371088
147	0x3e6ac95e	0.22928378
148	0x3dc0f7cf	0.09422266
149	0xbdbf6014	-0.09344497
150	0xbcff22c9	-0.031144517
151	0x3e409931	0.18808438
152	0x3dc18f49	0.094511576
153	0x3e31e376	0.17371926
154	0xbdff597e	-0.12468241
155	0x3d8a589e	0.06755184
156	0x3d2c93c0	0.042133093
157	0x3cd96c78	0.02654098
158	0x3e613c31	0.21995617
159	0x3e0a50ce	0.13507387
160	0x3e3cb1fe	0.18427274
161	0x3d890c7f	0.066918366
162	0x3db03230	0.086033225
163	0xbd388aa5	-0.045054097
164	0xbe55f9bd	-0.20896049
165	0xbe2461c9	-0.16052927
166	0xbe29967f	-0.16561316
167	0xbe22abe2	-0.1588588
168	0x3dc8b54c	0.09800205
169	0x3d50d8ab	0.05098788
170	0xbd93c2cd	-0.0721489
171	0xbe3cb2d2	-0.1842759
172	0x3e56c85f	0.20974873
173	0x3e33d3b5	0.17561229
174	0x3dd4d656	0.10392444
175	0x3e4738ce	0.19455263
176	0xbdf07b3a	-0.117422536
177	0xbe042598	-0.12904966
178	0xbe132796	-0.1437057
179	0xbc189b09	-0.009314307
180	0xbe57457c	-0.210226
181	0x3e459f87	0.19299136
182	0x3969b7b1	0.00022289042
183	0x3dff074c	0.12452564
184	0xbde60fd7	-0.1123349
185	0xbc2d05a3	-0.010560426
186	0x3ba67083	0.0050793304
187	0xbd9be4c1	-0.07611991
188	0x3e526d20	0.2054944
189	0xbdd4d0be	-0.10391377
190	0x3d918f99	0.07107467
191	0xbe0ed5f0	-0.13948798
192	0xbd515367	-0.05110493
193	0xbd90b49a	-0.07065697
194	0x3dc6daa3	0.097096704
195	0x3e080d05	0.13286217
196	0x3d1fb091	0.038986746
197	0xbc7284d5	-0.014802177
198	0xbd72687b	-0.05918167
199	0x3e3761bb	0.17908375
200	0xbd67cfd2	-0.056594677
201	0x3e14d6bd	0.14535041
202	0xbdba802e	-0.091064796
203	0x3e4ae80a	0.19815078
204	0x3e7040b0	0.23462176
205	0x3e109773	0.14120273
206	0x3e10c0da	0.14136067
207	0x3db3fe85	0.0878878
208	0xbdbb2e97	-0.09139746
209	0xbc8949fb	-0.01675891
210	0x3dc8e92a	0.098100975
211	0xbd63e9dc	-0.055642948
212	0x3d695f38	0.056975573
213	0x3e082fd9	0.13299502
214	0xbe4c76f2	-0.19967249
215	0xbe4ca0f4	-0.19983274
216	0xbe0ec0fc	-0.13940805
217	0x3d1c64eb	0.03818218
218	0xbccfed00	-0.025381565
219	0x3cb7c798	0.02243404
220	0xbd681a18	-0.05666551
221	0xbe2bc76e	-0.16775295
222	0x3d51544a	0.051105775
223	0x3e0c9a45	0.13730724
224	0xbe084342	-0.13306907
225	0x3e353dd2	0.17699364
226	0x3d8e19f3	0.06938543
227	0x3e676517	0.22597156
228	0xbe43b3d9	-0.19111575
229	0xbe4c40ec	-0.1994664
230	0x3db257ac	0.08708128
231	0xbe5634f9	-0.20918645
232	0xbe33b429	-0.17549194
233	0x3dcfba4d	0.10142956
234	0x3dcd5b04	0.100271255
235	0xbe47d14c	-0.19513434
236	0x3e316be5	0.17326315
237	0xbd4cc291	-0.04999024
238	0x3e3e45b6	0.1858128
239	0xbe1ff399	-0.15620269
240	0xbe8d3916	-0.27582616
241	0xbe082d36	-0.13298497
242	0xbc64c244	-0.013962332
243	0xbe5c29fd	-0.21500392
244	0xbd1b08cd	-0.03785019
245	0xbdd6ab87	-0.10481935
246	0xbcedbecd	-0.029021645
247	0x3ce16a36	0.027516466
248	0x3c6e8061	0.014556975
249	0xbe482ec3	-0.19549088
250	0x3de9cf08	0.11416441
251	0xbe0e88ac	-0.13919324
252	0x3e0b48f0	0.13602042
253	0x3e4474c1	0.19185163
254	0xbd580f4a	-0.052748956
255	0x3d0b2d22	0.03397859

bias f4 [100]
0	0x3da9a18e	0.08282767
1	0xbdbb1c82	-0.09136297
2	0xbde3d3a6	-0.11124353
3	0x3dc04eb1	0.09390009
4	0x3e48dc5a	0.19615307
5	0x3df29857	0.11845463
6	0xbdf97ca9	-0.1218198
7	0xbce94e08	-0.028479591
8	0x3dd37364	0.103247434
9	0x3c025800	0.007955551
10	0xbdee7022	-0.116424814
11	0x3d963596	0.073344395
12	0x3e31df8d	0.17370434
13	0x3d92a44b	0.07160243
14	0x3e4d0a89	0.2002355
15	0xbd326874	-0.043556646
16	0xbc83d8e2	-0.016094629
17	0x3e26597a	0.1624507
18	0xbd80456d	-0.06263242
19	0xbd543e75	-0.051817376
20	0xbd33e89e	-0.043923013
21	0x3e3156f5	0.17318328
22	0xbcb6fb41	-0.022336604
23	0x3e0ca19d	0.13733526
24	0x3da2aba7	0.07942896
25	0x3dc7dbf9	0.09758753
26	0xbd1435fd	-0.0361843
27	0xbe619b4e	-0.220319
28	0x3e640d8f	0.22270797
29	0xbd6863a1	-0.05673564
30	0x3d814fcb	0.063140474
31	0xbe622f45	-0.22088344
32	0x3cf86498	0.030321404
33	0x3b6e2e1e	0.0036343406
34	0x3e424a1c	0.18973583
35	0x3e1f674b	0.15566747
36	0xbe2306af	-0.15920518
37	0x3d818287	0.06323724
38	0x3e28ddce	0.16490862
39	0x3e128150	0.14307141
40	0xbe366a7e	-0.17814061
41	0x3e536f87	0.20648013
42	0x3d365215	0.044511873
43	0x3e15f24f	0.14643215
44	0x3cc54429	0.024080353
45	0x3d815358	0.06314725
46	0x3e25c015	0.16186555
47	0x3cce098e	0.02515104
48	0x3e14a71f	0.14516877
49	0x3e191079	0.1494769
50	0x3e03170b	0.12801759
51	0x3df529c6	0.11970858
52	0xbca39018	-0.01996617
53	0x3d2cf3e8	0.042224795
54	0x3d6b7ec1	0.05749393
55	0xbd0f15d8	-0.03493294
56	0xbe3b92c5	-0.18317707
57	0x3db7eff7	0.089813165
58	0x3d8ecb3d	0.069723584
59	0xbccba55b	-0.024859121
60	0xbe588a6b	-0.21146552
61	0x3e3bb0b8	0.18329132
62	0x3d9ee37f	0.07758235
63	0xbddb820e	-0.10718165
64	0x3e5810df	0.21100186
65	0xbe06b86f	-0.13156293
66	0xbbc6c80a	-0.006066327
67	0x3d01a82e	0.03165453
68	0xbd5fbe4c	-0.05462484
69	0xbdd29c49	-0.10283715
70	0xbddac1d4	-0.10681501
71	0x3dffa0c3	0.12481835
72	0xbb4c619e	-0.0031186114
73	0x3d196578	0.037450284
74	0x3e43c1ca	0.19116893
75	0xbe1bc008	-0.15209973
76	0xbcdd1bed	-0.026990855
77	0xbe2eb39c	-0.17060703
78	0xbd779835	-0.06044789
79	0xbdeb5b6a	-0.11492045
80	0x3d471fdc	0.048614368
81	0x3bc18dba	0.0059067877
82	0x3de9b948	0.11412293
83	0x3e14646d	0.14491434
84	0xbe0f3876	-0.13986382
85	0x3e2fccb9	0.17167939
86	0x3d480dbc	0.048841223
87	0x3dab4dab	0.08364423
88	0x3de5fd80	0.11229992
89	0x3e1c510d	0.15265293
90	0x3e0ebd1d	0.13939328
91	0xbe518a59	-0.20462932
92	0xbe5fe60d	-0.21865101
93	0x3e2f175d	0.17098756
94	0xbd3f47b6	-0.04669925
95	0xbe3126da	-0.17299977
96	0x3e14425d	0.1447844
97	0xbe229fec	-0.15881318
98	0x3e3f502c	0.18682927
99	0xbc741634	-0.014897872

weight f4 [100]
0	0x3f80d913	1.0066246
1	0x3f810503	1.0079654
2	0x3f7e9a63	0.99454325
3	0x3f7b6a2c	0.9820888
4	0x3f7ca5ba	0.9869038
5	0x3f771068	0.9650941
6	0x3f819ba4	1.0125623
7	0x3f800954	1.0002847
8	0x3f778f0b	0.9670264
9	0x3f7db0c1	0.9909783
10	0x3f7b771c	0.9822862
11	0x3f83783a	1.0271065
12	0x3f847574	1.0348344
13	0x3f7c73ca	0.9861418
14	0x3f8314fc	1.0240779
15	0x3f7ed756	0.99547327
16	0x3f81503d	1.0102612
17	0x3f85391c	1.0408053
18	0x3f80ef81	1.0073091
19	0x3f7f9eb9	0.99851567
20	0x3f81e652	1.0148413
21	0x3f7a2a95	0.97721225
22	0x3f815fb5	1.0107332
23	0x3f80d4c8	1.0064936
24	0x3f7a801f	0.9785175
25	0x3f81aab9	1.0130225
26	0x3f74bb9d	0.95598775
27	0x3f84214b	1.032266
28	0x3f83ecd3	1.0306648
29	0x3f7a91f7	0.97878975
30	0x3f7f41e4	0.99709916
31	0x3f83e0de	1.0302999
32	0x3f792e60	0.9733639
33	0x3f7a36cd	0.9773987
34	0x3f7ce67e	0.98789203
35	0x3f773dad	0.96578485
36	0x3f8503b7	1.0391759
37	0x3f7bfd2b	0.9843318
38	0x3f7eda2d	0.9955166
39	0x3f7b5c22	0.9818746
40	0x3f82e318	1.0225554
41	0x3f7c2327	0.9849114
42	0x3f811f4e	1.0087678
43	0x3f816c5f	1.0111197
44	0x3f7d5116	0.9895185
45	0x3f8055c1	1.002617
46	0x3f80f012	1.0073264
47	0x3f7f69a3	0.99770564
48	0x3f82da96	1.0222957
49	0x3f7f5ef6	0.99754274
50	0x3f7e9960	0.9945278
51	0x3f7a5d50	0.97798634
52	0x3f80b5ac	1.0055442
53	0x3f7f0d87	0.99630016
54	0x3f7f76c5	0.997906
55	0x3f827b64	1.0193906
56	0x3f7b3125	0.98121864
57	0x3f804511	1.0021077
58	0x3f7e5c56	0.99359643
59	0x3f83886c	1.0276008
60	0x3f815e17	1.0106839
61	0x3f85500d	1.0415055
62	0x3f7cfa77	0.9881968
63	0x3f7d6531	0.9898253
64	0x3f82f46a	1.0230839
65	0x3f7836e5	0.9695876
66	0x3f806a23	1.003239
67	0x3f7ab58a	0.97933257
68	0x3f81e7e2	1.014889
69	0x3f86777a	1.0505211
70	0x3f80b398	1.0054808
71	0x3f807e4b	1.0038542
72	0x3f847850	1.0349216
73	0x3f7a3b39	0.97746617
74	0x3f748f9a	0.9553162
75	0x3f81cbc1	1.0140306
76	0x3f8339fe	1.0252073
77	0x3f8018d3	1.0007576
78	0x3f7c74b6	0.98615587
79	0x3f7f3b52	0.9969989
80	0x3f805a8d	1.0027634
81	0x3f8076ea	1.003629
82	0x3f7ec878	0.9952464
83	0x3f852524	1.040196
84	0x3f7e5648	0.99350405
85	0x3f80aa34	1.0051942
86	0x3f784214	0.9697583
87	0x3f7b2ac6	0.9811214
88	0x3f82a466	1.020642
89	0x3f82a33b	1.0206064
90	0x3f7f8b1e	0.9982165
91	0x3f7edbf3	0.99554366
92	0x3f7c09ed	0.98452646
93	0x3f7aca94	0.9796536
94	0x3f757bb5	0.95891887
95	0x3f804f47	1.0024194
96	0x3f82c925	1.0217634
97	0x3f786bd5	0.9703954
98	0x3f802347	1.0010766
99	0x3f7824e6	0.969313

bias f4 [100]
0	0x3bf83d90	0.007575698
1	0x3ad004d4	0.001587058
2	0xbc6469a8	-0.013941206
3	0xbc3ad318	-0.011402868
4	0xbc6f1a06	-0.014593607
5	0xbd2d7b75	-0.042354066
6	0x3bceb9a2	0.0063087502
7	0xbb8997e9	-0.0041990173
8	0xbce00b0e	-0.027349021
9	0xbb25d36d	-0.0025303022
10	0xbc24f6aa	-0.010068575
11	0x3d098028	0.033569485
12	0x3cbc1fea	0.022964437
13	0x3b991d46	0.004672679
14	0x3d04eb4d	0.032450963
15	0xbc5c8fbe	-0.013462005
16	0x3c051366	0.008122301
17	0x3d1d16c4	0.03835179
18	0xbbac745d	-0.005262895
19	0x3c8f2e2a	0.017478067
20	0x3c7ba228	0.015358485
21	0xbc88cfa9	-0.016700583
22	0xbbb562dc	-0.0055354666
23	0xbc59dc47	-0.013297147
24	0xbcc9f5d7	-0.024653358
25	0x3c701034	0.014652301
26	0xbd1d796b	-0.03844587
27	0x3d04061d	0.032232393
28	0x3b8766ae	0.0041321134
29	0xbc3b82fe	-0.011444805
30	0xbc8924c4	-0.016741164
31	0x3c49ba81	0.012312532
32	0xbba92156	-0.0051614447
33	0xbd058d80	-0.032605648
34	0xbb8fee44	-0.004392417
35	0xbd08c335	-0.03338929
36	0x3d30022c	0.04297082
37	0xbcbb9b5c	-0.02290123
38	0x3c041841	0.008062423
39	0xbc7d85a1	-0.015473754
40	0x3d01dda4	0.031705514
41	0xbc4a4166	-0.012344694
42	0x3ad8933f	0.0016523375
43	0x3c242405	0.010018353
44	0x3bd1ac96	0.0063987477
45	0xbb94c9d1	-0.00454066
46	0x3c4d13a5	0.012516891
47	0xbaeb1c2e	-0.0017937475
48	0x3a5d814d	0.0008449748
49	0x3c82cfbb	0.015968194
50	0xbb78069d	-0.0037845739
51	0xbc20ee30	-0.009822413
52	0xbc1e859f	-0.009675412
53	0x3c1a61b4	0.009422708
54	0x39c83e46	0.0003819337
55	0x3b29b9b1	0.0025898034
56	0xbc46cc5f	-0.012133687
57	0x3bfba558	0.0076796226
58	0x3aaa1b8a	0.0012978178
59	0x3cde26a3	0.027118033
60	0x3c87d06d	0.016578877
61	0x3c7b1c0a	0.015326509
62	0xbc9079b4	-0.017636158
63	0xbb15276f	-0.00227591
64	0x3cf42229	0.029801445
65	0xbcdb16c9	-0.026744263
66	0x3af536f7	0.0018708397
67	0xbae56d52	-0.0017503893
68	0x3baf8fa5	0.0053577
69	0x3d02d1d6	0.031938396
70	0xbb0d4fb3	-0.0021562397
71	0xba5f6100	-0.0008521229
72	0x3d01b2cb	0.03166465
73	0xbc852787	-0.0162542
74	0xbcd9a7fe	-0.026569363
75	0x3c89511d	0.01676231
76	0x3cc7d8cb	0.024395367
77	0x39a89898	0.00032157148
78	0xbca3490d	-0.019932294
79	0xbc1c619f	-0.009544759
80	0x3ca78822	0.020450655
81	0xbbdbdbfa	-0.006709573
82	0x3ac975e6	0.001537022
83	0x3d13c5c9	0.036077294
84	0xbc6a10d0	-0.014286235
85	0x3b383816	0.0028109602
86	0xbd2092a4	-0.039202347
87	0xbb167b6f	-0.0022961756
88	0x3b40fcad	0.0029447482
89	0x3c748fd8	0.014926873
90	0x3bc64aef	0.0060514132
91	0xbb6792f2	-0.003533539
92	0xbc027532	-0.007962512
93	0xbb0feb8b	-0.0021960463
94	0xbd01ba14	-0.0316716
95	0x3c48c105	0.012253051
96	0x3c912dca	0.01772203
97	0xbc90464f	-0.01761165
98	0x3c8d0847	0.017215861
99	0xbc3a198f	-0.011358633

running_mean f4 [100]
0	0xbe1970ae	-0.1498439
1	0x3dc8f34d	0.09812031
2	0xbd8e4035	-0.0694584
3	0xbe284998	-0.16434324
4	0xbd86a604	-0.06574634
5	0x3e44f4f2	0.19234064
6	0xbe0adbd2	-0.13560417
7	0x3eafe469	0.3435395
8	0xbc990f72	-0.018684123
9	0x3dda5f96	0.10662763
10	0x3dce5de7	0.10076504
11	0xbdb06867	-0.08613663
12	0xbe115c63	-0.14195399
13	0x3e29175d	0.16512819
14	0x3ea88427	0.32913324
15	0x3ee0bce6	0.43894118
16	0x3ed4c491	0.41556218
17	0x3dc857dd	0.097823836
18	0x3e64e9df	0.2235484
19	0xbc3569d0	-0.011072591
20	0xbd7f918e	-0.06239467
21	0x3eb4c977	0.35309955
22	0xbf379170	-0.71706295
23	0x3e8e267a	0.2776373
24	0x3e1f218f	0.15540145
25	0x3f1a2c9e	0.6022433
26	0xbd451c72	-0.04812283
27	0xbe936cca	-0.28793937
28	0x3d6cc6d1	0.057806794
29	0x3e42b4e9	0.19014324
30	0xbea62b72	-0.3245502
31	0xbeb3c5b5	-0.35111776
32	0xbee142fb	-0.43996415
33	0x3df833b4	0.121192366
34	0x3c5ea5af	0.013589307
35	0x3ea45e5e	0.32103246
36	0xbf0db454	-0.55353284
37	0xbe34dd90	-0.17662644
38	0x3c0a174d	0.008428407
39	0xbd77c21b	-0.060487848
40	0xbf12e039	-0.57373387
41	0x3e8963df	0.26834008
42	0x3d8a0b2e	0.067404136
43	0x3f290cf5	0.66035396
44	0x3e944871	0.28961518
45	0x3dc255ec	0.094890445
46	0xbf0c4eca	-0.5480772
47	0xbc240914	-0.01001193
48	0x3e668cac	0.225146
49	0x3e422bab	0.1896197
50	0x3ee12102	0.43970495
51	0x3c57b77f	0.0131663075
52	0xbe8fae70	-0.28062773
53	0x3f1ddee8	0.6166825
54	0xbac9dfb0	-0.0015401747
55	0x3f0e4bd3	0.5558445
56	0xbd98d549	-0.07462556
57	0x3e8e14d9	0.2775028
58	0xbdca4899	-0.09877128
59	0xbeb44640	-0.35209846
60	0x3ec2aab6	0.38020867
61	0xbe16fd1b	-0.1474499
62	0xbd738f4b	-0.059462827
63	0xbe8f44ee	-0.27982277
64	0x3d897e17	0.06713503
65	0xbeb3896f	-0.3506579
66	0xbed3f7ab	-0.41399893
67	0x3df9158f	0.12162315
68	0x3eafe407	0.3435366
69	0xbe9cf5ea	-0.30656368
70	0x3dacc962	0.08436848
71	0x3f023f7e	0.5087813
72	0xbde48ca9	-0.11159641
73	0x3ea87d8b	0.32908282
74	0xbdde1f31	-0.10845793
75	0x3e3c5d1f	0.18394898
76	0x3f0bc518	0.54597616
77	0xbf04c4ec	-0.5186298
78	0x3ec04604	0.37553418
79	0xbebf4337	-0.37355968
80	0x3dd47bb6	0.103751585
81	0x3e9b86f2	0.30376393
82	0x3dfc87de	0.12330602
83	0x3e02ec92	0.12785557
84	0xbcb02005	-0.021499643
85	0xbe623ebe	-0.22094247
86	0x3e8e9c2d	0.27853528
87	0x3ea1a598	0.3157165
88	0xbe88cfcd	-0.2672104
89	0x3eb05c7c	0.3444556
90	0x3ebff600	0.3749237
91	0xbefee82b	-0.49786505
92	0xbd732e82	-0.059370525
93	0x3b8e94b1	0.0043512215
94	0x3e17797d	0.14792438
95	0xbdc590f5	-0.09646789
96	0xbea9090c	-0.33014715
97	0xbe2ea508	-0.17055142
98	0xbebc1888	-0.36737466
99	0x3eb8266c	0.35966814

running_var f4 [100]
0	0x3d4ed035	0.05049153
1	0x3d602341	0.05472112
2	0x3d4b5200	0.04963875
3	0x3d81f1a5	0.06344918
4	0x3daac925	0.083391465
5	0x3d420bfd	0.047374714
6	0x3d7c6a20	0.061624646
7	0x3de77aac	0.11302695
8	0x3d81bee1	0.063352354
9	0x3d499b30	0.049220264
10	0x3d8d04cc	0.068856806
11	0x3db08cc5	0.086206
12	0x3db18409	0.08667762
13	0x3d2d1424	0.042255536
14	0x3d50c74c	0.050971314
15	0x3dd5e9da	0.10444994
16	0x3de5de64	0.11224058
17	0x3d2f7168	0.042832762
18	0x3db8cd94	0.09023586
19	0x3d379c23	0.044826638
20	0x3cef5b17	0.02921824
21	0x3d8b57d3	0.068038605
22	0x3e3ed0f0	0.18634391
23	0x3d4847e4	0.048896685
24	0x3d6b0383	0.057376396
25	0x3e057382	0.13032344
26	0x3d2883ef	0.041141447
27	0x3d9b3ba7	0.07579737
28	0x3dbbbb57	0.091665916
29	0x3d98dbf3	0.07463827
30	0x3da5133f	0.080603115
31	0x3d550a1b	0.05201159
32	0x3de23b57	0.110464744
33	0x3d7cc398	0.06170997
34	0x3d98f29e	0.074681506
35	0x3da7ccf2	0.08193387
36	0x3dd31aaf	0.10307824
37	0x3db5e5d0	0.08881724
38	0x3d9dd8e3	0.077073835
39	0x3da407f8	0.080093324
40	0x3dd4609c	0.10369989
41	0x3d1a7976	0.03771349
42	0x3d0f42dd	0.034975875
43	0x3e0e7130	0.13910365
44	0x3dc4a486	0.09601693
45	0x3d2dbb0b	0.042414706
46	0x3e5c11fb	0.21491234
47	0x3d4e1c80	0.05032015
48	0x3d403e96	0.046934687
49	0x3d389c4c	0.04507093
50	0x3df519e0	0.11967826
51	0x3d52abc2	0.051433332
52	0x3d434b07	0.047678974
53	0x3e1eb83e	0.1549997
54	0x3d955b73	0.07292833
55	0x3e08b96d	0.13351984
56	0x3d902e26	0.07040052
57	0x3d9e8ddf	0.077419035
58	0x3d70afec	0.058761522
59	0x3daac6ea	0.08338721
60	0x3e1b54d2	0.15169075
61	0x3dde2259	0.10846395
62	0x3d8eaf6d	0.069670536
63	0x3d936341	0.071966656
64	0x3d744ff7	0.059646573
65	0x3d7d85fa	0.061895348
66	0x3d9cde90	0.07659638
67	0x3d796c62	0.060894378
68	0x3de03da3	0.10949256
69	0x3d7ac889	0.0612264
70	0x3d91dc8d	0.07122145
71	0x3df3c388	0.11902529
72	0x3d9a82e3	0.07544496
73	0x3dbfb05e	0.09359811
74	0x3dd2adff	0.10287093
75	0x3d960694	0.073254734
76	0x3e17e9b7	0.14835249
77	0x3dab753f	0.08371972
78	0x3e0367e2	0.12832597
79	0x3d7427f9	0.059608433
80	0x3d3badb2	0.045819946
81	0x3da3ef7a	0.08004661
82	0x3d7cc4b5	0.061711032
83	0x3d4b53da	0.049640514
84	0x3d9ff60d	0.07810602
85	0x3de97d92	0.11400904
86	0x3d939a19	0.07207126
87	0x3d937414	0.071998745
88	0x3dd07c25	0.10179929
89	0x3d41b218	0.047288984
90	0x3d4418ee	0.047875337
91	0x3dbd5028	0.09243804
92	0x3d964f48	0.073393404
93	0x3da61a28	0.08110458
94	0x3d81ddda	0.06341143
95	0x3d896053	0.067078255
96	0x3de9d997	0.11418455
97	0x3d5d5148	0.054032594
98	0x3e161ba1	0.14658977
99	0x3dbb6aa1	0.09151197

weight f4 [20, 100]
0	0xbda27df4	-0.0793418
1	0x3d59a559	0.053136203
2	0xbb2d875e	-0.002647839
3	0xbd95c5e3	-0.073131345
4	0xbdd58e65	-0.1042755
5	0xbd559b22	-0.0521499
6	0xbd8e974e	-0.06962453
7	0xbba76737	-0.0051087397
8	0x3d9958a2	0.074876085
9	0x3c303523	0.010754856
10	0x3b950281	0.0045474176
11	0xbd691981	-0.056909088
12	0xbdc97808	-0.09837347
13	0x3d31f7dc	0.043449268
14	0xbdae4988	-0.08510119
15	0x3d900b67	0.07033425
16	0xbd3d7391	-0.04625279
17	0x3d5ad1e7	0.053422835
18	0x3c2be345	0.010491197
19	0xbde62f4a	-0.112394884
20	0xbd26988e	-0.04067283
21	0x3d35d41d	0.04439174
22	0x3d0789c6	0.033090375
23	0xbd4ae46f	-0.049534258
24	0x3c63dfe4	0.01390836
25	0xbd98055a	-0.07422896
26	0xba86f5a1	-0.0010296592
27	0xbde22da8	-0.110438645
28	0x3d938657	0.07203358
29	0xbd2ea07a	-0.04263351
30	0x3d48b143	0.048997175
31	0x3ddd65f1	0.108104594
32	0x3b54e900	0.0032487512
33	0x3d427373	0.047473382
34	0x3d400b30	0.04688567
35	0x3cfc287c	0.030781023
36	0x3be8a664	0.0070999134
37	0x3d422c5c	0.047405586
38	0xbc62396b	-0.013807635
39	0x3d1a55bd	0.037679423
40	0xbc4d9f52	-0.012550192
41	0x3cd796eb	0.02631708
42	0xbcea0fcc	-0.028571986
43	0x3d32faf5	0.043696363
44	0xbcfe5c47	-0.03104986
45	0x3d23961b	0.039938074
46	0x3b52741a	0.003211266
47	0xbd25c55e	-0.040471427
48	0x3d61d41b	0.05513392
49	0x3d5bf72a	0.05370251
50	0xbd7d3877	-0.061821427
51	0x3c4e1fe4	0.0125808455
52	0x3c8d53b1	0.017251821
53	0xbd5448a4	-0.051827088
54	0x3d5e56ba	0.054281928
55	0x3dbabbe6	0.0911787
56	0x3d33d0f3	0.04390044
57	0x3dbaf3ee	0.09128557
58	0xbd130df9	-0.035901997
59	0x3dda6071	0.10662926
60	0x3d8b1780	0.06791592
61	0x3d99ddd5	0.07513014
62	0x39a58bc3	0.00031575383
63	0xbd7c72c0	-0.06163287
64	0xbd0341db	-0.032045227
65	0xbbb5a28e	-0.0055430597
66	0xbd30a505	-0.043126125
67	0x3d88d13c	0.06680533
68	0xbde4f9c9	-0.11180455
69	0xbda50215	-0.08057038
70	0xbd9fb0fa	-0.077974275
71	0xbc6d6e29	-0.014491596
72	0xbd248862	-0.040169127
73	0xbd1ff99c	-0.039056405
74	0x3ca858d4	0.020550169
75	0x3d51d8da	0.051232196
76	0x3dac2cc8	0.08406979
77	0xbd8c2ac4	-0.068440944
78	0xbd0d1a39	-0.034448836
79	0x3db5a3fc	0.08869168
80	0x3e00eae7	0.12589608
81	0x3da7615d	0.081728674
82	0xbdafe532	-0.085886374
83	0xbd05f494	-0.03270395
84	0x3d421ddc	0.047391757
85	0x3ca1293b	0.01967298
86	0x3d14f616	0.0363675
87	0x3d8dcb17	0.06923502
88	0xbd060fa3	-0.032729756
89	0x3d1ad3a8	0.037799507
90	0x3c1988c2	0.0093709845
91	0x3adafb6c	0.001670701
92	0x3dabb1f4	0.08383551
93	0x3cb183a9	0.021669226
94	0x3d70821b	0.05871783
95	0x3c1df7ea	0.009641627
96	0xbcd69acb	-0.026196858
97	0x3da522b5	0.080632605
98	0xbd76cd4a	-0.060254373
99	0xbd80fd5e	-0.06298326
100	0x3d51b6c8	0.051199704
101	0x3d572902	0.052529342
102	0xbdacdf5a	-0.084410384
103	0x3c1c6da0	0.009547621
104	0xbd0d358e	-0.0344749
105	0x3d5d3e78	0.054014653
106	0xbd84b2a3	-0.06479385
107	0xbda0cbb4	-0.07851353
108	0xbcca0d3a	-0.02466451
109	0x3dcda4fa	0.100412324
110	0xbc0c0495	-0.008546014
111	0xbdc3ecdd	-0.095666625
112	0xbd304890	-0.04303795
113	0x3d164d9f	0.03669512
114	0x3d4deb6d	0.050273348
115	0x3db7db1d	0.089773394
116	0x3cf50424	0.029909201
117	0x3d967120	0.07345796
118	0x3a101f40	0.00054978207
119	0xbc446765	-0.011987542
120	0xbc1a099f	-0.009401708
121	0x3d964140	0.07336664
122	0x3c4f4405	0.012650494
123	0x3ce5cc10	0.028051406
124	0x3c8cb8df	0.017177997
125	0xbd5d06ac	-0.05396144
126	0xbc834dc7	-0.016028298
127	0xbd56bddf	-0.05242717
128	0x3dab201b	0.08355733
129	0xba4782df	-0.0007610749
130	0x3d0da7d8	0.034583896
131	0x3daa7967	0.08323937
132	0xbcc823fe	-0.024431225
133	0x3d74156c	0.059590742
134	0xbd1f245e	-0.03885304
135	0xbd573e54	-0.052549675
136	0x3d725ed5	0.05917247
137	0xbbaa90bb	-0.0052052415
138	0x3d57d828	0.052696377
139	0x3b0592ee	0.0020381766
140	0x3cb3009b	0.021850875
141	0x3d9487d3	0.07252469
142	0x3c486c48	0.0122328475
143	0xbd58769a	-0.052847482
144	0x3dd78081	0.10522557
145	0xbd839385	-0.064246215
146	0xbda4a097	-0.080384426
147	0x3da1bc84	0.078972846
148	0xbdcf5acf	-0.10124742
149	0xbd2462b4	-0.040133193
150	0x3da21de5	0.07915858
151	0xbd90e0de	-0.0707414
152	0x3db11846	0.08647208
153	0x3dab765f	0.08372187
154	0x3d810fd7	0.06301849
155	0xbc9222aa	-0.017838795
156	0xbd203d9f	-0.039121266
157	0x3d84561a	0.06461735
158	0xbd2fae8a	-0.042891063
159	0xbbab4811	-0.005227097
160	0xbdbf994e	-0.093554124
161	0xbd38ceb5	-0.045119006
162	0xbc7a2384	-0.015267257
163	0xbd106ffd	-0.03526305
164	0x3d81dbc3	0.06340744
165	0xbb95aa3e	-0.0045674136
166	0xbda70bc9	-0.08156545
167	0x3d88604d	0.06658993
168	0x3d17065a	0.03687129
169	0xbbcf6cf1	-0.0063301255
170	0xbc27e2a7	-0.010246909
171	0xbdb0be95	-0.08630101
172	0x3b241554	0.0025037127
173	0x3d9c02d3	0.07617726
174	0xbd45cdcc	-0.048291966
175	0xbdae6bb7	-0.08516639
176	0x3cdca2ac	0.026933037
177	0xbd84cfee	-0.06484972
178	0xbd4575d2	-0.048208065
179	0x3daac974	0.083392054
180	0xbdabc479	-0.083870836
181	0xbd8d89d5	-0.06911055
182	0x3d8a9c4c	0.067680925
183	0xbc091175	-0.0083659785
184	0x3cbc452b	0.0229822
185	0x3db6726f	0.08908545
186	0x3c83c303	0.0160842
187	0xbd91a5fa	-0.07111736
188	0xbb3c84b8	-0.002876563
189	0xbdd98cc7	-0.10622554
190	0xbbf013bf	-0.0073265727
191	0xbbdd4aa4	-0.0067532826
192	0xbd486051	-0.04891998
193	0x3d7974cd	0.060902406
194	0x3d261e22	0.04055608
195	0xbbc68006	-0.006057742
196	0x3db50548	0.08838898
197	0x3ccc3522	0.02492768
198	0x3cacc865	0.02109165
199	0x3c90a678	0.017657503
200	0x3d28f7f4	0.04125209
201	0xbc68446d	-0.01417647
202	0x3d87a612	0.06623472
203	0xbd9f4171	-0.07776154
204	0x3d3f9669	0.0467743
205	0x3d8b96e2	0.06815888
206	0x3d2c9c3c	0.042141184
207	0xbd39e7ca	-0.045387067
208	0x3d8ca5c8	0.06867558
209	0xbb1e5821	-0.0024161416
210	0xbd654410	-0.055973113
211	0xbdc57b77	-0.0964269
212	0x3d2d9580	0.042378902
213	0xbc64b4cb	-0.01395912
214	0xbdc690d2	-0.09695591
215	0x3d2c03b1	0.041995708
216	0x3dad0e05	0.0844994
217	0xbd34596c	-0.04403059
218	0xbd87f6e2	-0.06638886
219	0xbba46933	-0.0050174235
220	0xbd246bf3	-0.04014201
221	0xbbd75638	-0.0065715574
222	0xbd9805c4	-0.07422975
223	0xbde259ca	-0.11052282
224	0xbd2377b9	-0.0399091
225	0xbdd78ae3	-0.105245374
226	0x3d0e6766	0.034766577
227	0x3d73fe0f	0.05956846
228	0x3c8de80c	0.017322563
229	0x3cfd763f	0.030940173
230	0x3d1c801d	0.038208116
231	0xbd0ea993	-0.034829687
232	0xbd0dd24c	-0.034624383
233	0x3c63fc6c	0.0139151625
234	0xbc44c2d6	-0.012009343
235	0xbda1aa69	-0.07893831
236	0x3dc851b8	0.097812116
237	0xbd841992	-0.0645019
238	0x3d6d28f4	0.057900384
239	0xbc3efe24	-0.0116572715
240	0x3dd602f1	0.1044978
241	0xbcdf5d08	-0.02726604
242	0x3cac8b91	0.021062644
243	0xbdd98a48	-0.10622078
244	0xbd8c6510	-0.06855214
245	0x3baff8cb	0.0053702346
246	0x3db5b6cb	0.088727556
247	0xbc25bdf7	-0.010116092
248	0xbcc92431	-0.02455339
249	0x3d40f3b1	0.047107402
250	0xbc71d080	-0.014759183
251	0x3c1030ff	0.008800744
252	0xbd7c33b0	-0.06157273
253	0xbda47a65	-0.080311574
254	0x3db079f3	0.0861701
255	0xbdc7d252	-0.09756912

bias f4 [20]
0	0x3b296151	0.0025845359
1	0xbca70fc7	-0.020393265
2	0xbcd41dee	-0.025893178
3	0xbdc59072	-0.096466914
4	0xbd1bce20	-0.038038373
5	0x3cbf8d0f	0.023382692
6	0x3d1bcc4a	0.038036622
7	0x3c9e3ecb	0.019317051
8	0xbb819abc	-0.0039552134
9	0x3cfdea61	0.03099555
10	0x3d941e41	0.07232333
11	0x3da74efd	0.08169363
12	0xbcf6a4e3	-0.030107921
13	0xbc03018f	-0.007995977
14	0xbcb26447	-0.021776332
15	0x3d1b1df5	0.037870366
16	0xbd666992	-0.056253023
17	0x3cc07a6a	0.023495872
18	0xbdd07fbd	-0.10180614
19	0xbd9d14bf	-0.07669973

weight f4 [20]
0	0x3f8a25a9	1.0792743
1	0x3f7de76e	0.9918126
2	0x3f79bc64	0.97553086
3	0x3f77a885	0.96741515
4	0x3f77e9ff	0.96841425
5	0x3f76b57c	0.96370673
6	0x3f79b813	0.975465
7	0x3f74ee10	0.95675755
8	0x3f78c39c	0.97173476
9	0x3f77ea16	0.9684156
10	0x3f7766db	0.9664132
11	0x3f7253f7	0.9465937
12	0x3f7f07fb	0.9962155
13	0x3f75016e	0.95705307
14	0x3f7d4c24	0.98944306
15	0x3f75239f	0.9575748
16	0x3f761ce9	0.96137863
17	0x3f78d1b3	0.97194976
18	0x3f72b36c	0.94805026
19	0x3f782c1c	0.96942306

bias f4 [20]
0	0x3e06d834	0.13168412
1	0x3d3535e7	0.04424086
2	0xbc06b4fb	-0.00822186
3	0x3cc8d8da	0.024517465
4	0x39b78077	0.00035000194
5	0xbd69f9e2	-0.057123072
6	0xbdc87bcc	-0.097892374
7	0x3c059d34	0.008155156
8	0xbdc02b4c	-0.09383258
9	0xbd517662	-0.05113829
10	0xbd9fbd7e	-0.07799815
11	0xbd2170ef	-0.039414342
12	0x3c7ac19d	0.01530495
13	0xbd819725	-0.06327657
14	0xbddb0fa1	-0.1069634
15	0xbce984b3	-0.028505659
16	0x3c90ec17	0.017690701
17	0xbda42b85	-0.08016113
18	0x3d113815	0.035453875
19	0xbdae64e6	-0.085153386

running_mean f4 [20]
0	0x3dd120de	0.10211347
1	0x3d84fd75	0.064936556
2	0xbe92845f	-0.28616616
3	0x3d95a536	0.07306902
4	0xbde40106	-0.11133008
5	0x3dd4d137	0.10391467
6	0x3d7224b5	0.059117038
7	0xbdf345c0	-0.11878538
8	0x3e7a6a83	0.24454693
9	0x3c8a0c08	0.01685144
10	0x3e15c09a	0.14624253
11	0xbde1cd45	-0.1102548
12	0xbe0083c2	-0.12550262
13	0xbe6ba73c	-0.23013014
14	0x3d39e195	0.045381147
15	0xbe4becd9	-0.19914569
16	0x3e90f0bc	0.28308666
17	0xbe9331fc	-0.28749073
18	0xbe9ae3a8	-0.30251813
19	0x3e21de83	0.15807538

running_var f4 [20]
0	0x3e7768e9	0.24161114
1	0x3e0e493f	0.13895129
2	0x3eecd35d	0.46255007
3	0x3e7ce515	0.24696763
4	0x3e584ff5	0.21124251
5	0x3e934afd	0.2876815
6	0x3e8af0d4	0.27136862
7	0x3e7d2ccc	0.2472412
8	0x3e3b4a00	0.18289948
9	0x3e9f3fe5	0.31103435
10	0x3e9eea40	0.31038094
11	0x3e047dad	0.12938567
12	0x3ed79f85	0.4211389
13	0x3ec07c43	0.37594804
14	0x3e80b70b	0.2513965
15	0x3e323e78	0.17406642
16	0x3e859af3	0.2609478
17	0x3e61fb1b	0.22068445
18	0x3e501467	0.20320283
19	0x3e892171	0.26783326
