logs/EXP1_AssortmentNN/EXP1_AssortmentNN_epoch19.pth (torch, 24443 bytes, 12 tensors)

weight f4 [100, 20]
0	0xbe6962f2	-0.22791651
1	0x3bb2eaf3	0.005460137
2	0xbdf089dc	-0.117450446
3	0xbdcf0eb8	-0.10110229
4	0xbe4f1b32	-0.20225218
5	0x3d7d49a4	0.061837807
6	0xbe3cbb87	-0.18430911
7	0xbc81808b	-0.015808364
8	0x3e01de11	0.12682368
9	0xbd88b79b	-0.06675645
10	0x3e171c4f	0.14756893
11	0x3d2d4b83	0.04230834
12	0x3dc13767	0.09434395
13	0x3dc0a462	0.094063535
14	0xbde51258	-0.111851394
15	0x3d8bb7cc	0.06822166
16	0xbdc4a045	-0.096008815
17	0x3d7bd9bf	0.061486956
18	0xbe25a682	-0.16176799
19	0x3d79084e	0.060798936
20	0x3d75717d	0.059922684
21	0xbdbc6747	-0.09199386
22	0xbe064533	-0.13112335
23	0x3cb1257e	0.021624323
24	0x3e843c96	0.25827473
25	0x3dd2d73a	0.102949575
26	0xbd65bfb7	-0.056091037
27	0x3cb4cfbb	0.02207171
28	0x3e02903f	0.12750338
29	0xbe168ac3	-0.14701371
30	0x3cd59f28	0.026076868
31	0xbd9c57b0	-0.076339126
32	0x3d9a4d70	0.07534301
33	0xbd376022	-0.044769414
34	0xbd1b548d	-0.03792243
35	0x3daea286	0.08527093
36	0x3e0e153c	0.13875288
37	0xbdeaacc5	-0.114587344
38	0x3e56533c	0.20930189
39	0xbe25030d	-0.16114445
40	0xbcf98c76	-0.030462485
41	0xbe41e9ab	-0.18936794
42	0xbb9474b0	-0.004530512
43	0x3da32823	0.0796664
44	0xbdf1f2c2	-0.118138805
45	0x3dfea208	0.12433249
46	0xbd109d7f	-0.03530645
47	0xbe56db3d	-0.2098207
48	0x3e3466ca	0.17617336
49	0x3df3db03	0.119070075
50	0x3e037714	0.12838393
51	0x3d9e6068	0.07733232
52	0x3ddeb2a8	0.1087392
53	0x3dbda443	0.09259846
54	0x3e4a19ea	0.19736448
55	0xbccd9e54	-0.02509991
56	0xbe46c5e3	-0.19411425
57	0xbe1e13fe	-0.15437314
58	0xbd803a78	-0.06261152
59	0xbd1c7c20	-0.038204312
60	0x3c709e4a	0.014686177
61	0x3e086b2a	0.1332213
62	0x3d515d7b	0.05111454
63	0xbe0aa954	-0.13541156
64	0xbcbf4633	-0.023348903
65	0xbb47403c	-0.0030403277
66	0x3dfe3538	0.124124944
67	0xbd59e737	-0.05319902
68	0xbdca779e	-0.098860964
69	0xbc84dde3	-0.016219085
70	0xbd915bd9	-0.07097597
71	0xbd62b08f	-0.05534416
72	0xbe5315c0	-0.20613766
73	0x3e6c5d57	0.23082481
74	0x3e1645e3	0.14675097
75	0xbdc1736b	-0.09445842
76	0xbe5f18b9	-0.21786775
77	0x3d52dbe3	0.05147923
78	0x3dc0728c	0.09396848
79	0xbe0bef2e	-0.13665459
80	0xbe1e6550	-0.15468335
81	0x3dddefb9	0.10836739
82	0xbe1b722f	-0.15180276
83	0xbcd7c9af	-0.026341287
84	0xbe35efce	-0.1776726
85	0x3e2c1450	0.16804624
86	0x3e1b2469	0.15150608
87	0xbe3e5009	-0.18585218
88	0xbd9826b9	-0.07429261
89	0x3dffb375	0.124854006
90	0xbb14cee6	-0.002270633
91	0xbc9e2c70	-0.019308299
92	0xbe192e81	-0.14959146
93	0xbe2d5cd7	-0.16929947
94	0x3d8c504b	0.06851252
95	0xbe209ce0	-0.15684843
96	0xbd01f46b	-0.031727236
97	0x3dd3bb41	0.1033845
98	0x3e18b30e	0.14912054
99	0xbc0065f7	-0.00783681
100	0xbca4b052	-0.020103607
101	0x3dc9ce31	0.09853781
102	0xbd8313ca	-0.06400259
103	0xbd321850	-0.043480217
104	0x3e4aff1e	0.19823882
105	0x3e298dd5	0.16558011
106	0x3da590c6	0.08084254
107	0xbde4ecd1	-0.11177982
108	0xbe7d7e51	-0.24755217
109	0xbe4b469f	-0.19851159
110	0xbb7d908d	-0.0038690895
111	0xbe08fea8	-0.13378394
112	0xbd3b9b89	-0.045802627
113	0xbcf86e2e	-0.030325975
114	0x3e65cdfc	0.22441858
115	0x3e48cba5	0.19608934
116	0x397c8084	0.00024080469
117	0xbd8921e9	-0.06695921
118	0x3dc36bee	0.0954207
119	0xbd121dd5	-0.03567298
120	0xbe834633	-0.25639495
121	0x3d23a65b	0.03995357
122	0x3e4c871f	0.1997342
123	0xbe30bb0a	-0.1725885
124	0xbd4ae842	-0.049537905
125	0xbcd5883e	-0.026065942
126	0xbe11dcd8	-0.14244401
127	0xbe36cfff	-0.17852782
128	0x3e44e1de	0.19226786
129	0xbdb0c838	-0.08631939
130	0x3e260976	0.16214547
131	0x3b5530d2	0.003253032
132	0x3e111580	0.14168358
133	0xbe157635	-0.14595874
134	0xbd704784	-0.058661953
135	0x3e1118b9	0.14169587
136	0x3dd7bef1	0.10534466
137	0xbcb2db3c	-0.021833055
138	0x3c6cf2a3	0.014462146
139	0x3e11409c	0.14184803
140	0xbde1d9dd	-0.11027882
141	0x3e12890b	0.1431009
142	0xbb9dd9ae	-0.004817209
143	0xbcfbed2f	-0.030752746
144	0x3d92a8e1	0.07161117
145	0xbe2c3f7e	-0.16821095
146	0x3b4cfd55	0.0031278927
147	0x3e6c9747	0.23104583
148	0x3df94f79	0.12173361
149	0xbde54d23	-0.11196353
150	0xbc251f7a	-0.010078305
151	0x3e61700c	0.22015399
152	0x3dc52911	0.096269734
153	0x3e5c6eaa	0.2152659
154	0xbdd1f3b1	-0.102515586
155	0x3d141792	0.03615529
156	0x3d4f452f	0.050603088
157	0x3c3fbf12	0.01170327
158	0x3e6ed57d	0.23323627
159	0x3e057aaf	0.13035081
160	0x3e19640f	0.14979576
161	0x3c9e9aff	0.019361017
162	0x3d6dc71d	0.058051217
163	0xbda80756	-0.08204524
164	0xbe499e08	-0.1968919
165	0xbe0de378	-0.13856304
166	0xbe5a682d	-0.21328802
167	0xbe2eaaff	-0.17057417
168	0x3d88febb	0.06689211
169	0x3d20d0ef	0.039261755
170	0xbdddcc82	-0.108300224
171	0xbe5029ff	-0.2032852
172	0x3e35c2ad	0.17750044
173	0x3e1ffed9	0.1562456
174	0x3d804923	0.0626395
175	0x3e3b9458	0.18318307
176	0xbe0ff4de	-0.14058253
177	0xbe318a12	-0.17337826
178	0xbe3a724f	-0.18207668
179	0x399badbc	0.00029693346
180	0xbe4d29a0	-0.2003541
181	0x3e761fa2	0.24035504
182	0xbba53b6d	-0.0050424845
183	0x3dd5a953	0.10432687
184	0xbd9af29b	-0.075658046
185	0xbca0ff31	-0.019652935
186	0x3c2b84ca	0.010468671
187	0xbbb80a92	-0.0056164945
188	0x3e61ec0e	0.22062704
189	0xbd7bdacd	-0.06148796
190	0x3dd37f6b	0.103270374
191	0xbe0e05d1	-0.13869406
192	0xbdb86e8d	-0.09005461
193	0xbd779a61	-0.06044996
194	0x3df5a7ec	0.11994919
195	0x3e06d1a4	0.13165909
196	0x3d09a86e	0.033607893
197	0xbb4b8f45	-0.0031060737
198	0xbd7e36e1	-0.062064055
199	0x3e2f88af	0.17141984
200	0xbdab37a3	-0.08360221
201	0x3e0780b9	0.13232698
202	0xbdbed1f9	-0.09317393
203	0x3e3c7e32	0.18407515
204	0x3e6821ee	0.22669193
205	0x3e08546b	0.13313453
206	0x3dfee08e	0.12445174
207	0x3ddbeed0	0.10738909
208	0xbdb07314	-0.086156994
209	0xbd23ff91	-0.04003865
210	0x3e118c08	0.14213574
211	0xbd522e80	-0.051313877
212	0x3d61a568	0.055089384
213	0x3e2477e9	0.16061367
214	0xbe3aa69e	-0.18227622
215	0xbe3a34a0	-0.18184137
216	0xbe26690c	-0.1625101
217	0x3db08a83	0.08620169
218	0xbc2dbf6a	-0.010604719
219	0x39f2745f	0.0004624454
220	0xbcce395b	-0.025173834
221	0xbe24831f	-0.16065644
222	0x3d15c7eb	0.03656761
223	0x3e15f128	0.14642775
224	0xbe0e466a	-0.13894048
225	0x3e3c0c2c	0.18364018
226	0x3dcfa110	0.10138142
227	0x3e41a203	0.18909459
228	0xbe1d2b88	-0.15348637
229	0xbe6865a2	-0.2269502
230	0x3de17f5f	0.11010622
231	0xbe2e8ced	-0.17045946
232	0xbe33a6cf	-0.17544101
233	0x3e05b0a3	0.13055663
234	0x3dc0a665	0.09406737
235	0xbe53ad98	-0.2067169
236	0x3e431a21	0.19052936
237	0xbd78bc53	-0.060726475
238	0x3e69cdd4	0.22832423
239	0xbdfe76f9	-0.12425036
240	0xbe9b5a65	-0.30342403
241	0xbda9af65	-0.08285407
242	0x3c50da3a	0.012747342
243	0xbe530666	-0.2060791
244	0xbd98d4e8	-0.07462484
245	0xbde9d5f5	-0.11417762
246	0xbcaadfd3	-0.02085868
247	0x3cf18e68	0.02948685
248	0x3c96a4ab	0.018389067
249	0xbe4670b0	-0.19378924
250	0x3de87ebd	0.113522984
251	0xbdfcc04f	-0.123413675
252	0x3e060d07	0.13090907
253	0x3e3822aa	0.17981973
254	0xbc72b9e5	-0.0148148285
255	0x3c7996be	0.015233694

bias f4 [100]
0	0x3dadf47d	0.08493898
1	0xbdb7e5de	-0.089793906
2	0xbde576f9	-0.11204333
3	0x3dcef7f5	0.10105888
4	0x3e4c4c3f	0.1995096
5	0x3df55e96	0.119809315
6	0xbdf359e2	-0.11882378
7	0xbd0e5b3d	-0.03475498
8	0x3dd09610	0.10184872
9	0x3af6d449	0.0018831576
10	0xbe014276	-0.12623009
11	0x3d8334c5	0.06406549
12	0x3e37fb39	0.17966928
13	0x3d6e5dda	0.058194973
14	0x3e5436a6	0.20723972
15	0xbd3013f0	-0.042987764
16	0xbceb9904	-0.028759487
17	0x3e2f5a71	0.17124344
18	0xbd6a861e	-0.05725681
19	0xbd0bec6b	-0.034161013
20	0xbd133b3c	-0.035945162
21	0x3e32e19b	0.17468874
22	0xbc62dcf3	-0.013846624
23	0x3e0f6c3f	0.14006136
24	0x3db2336f	0.087012164
25	0x3ddf6690	0.10908234
26	0xbcc29d5e	-0.02375668
27	0xbe5e20c4	-0.21692187
28	0x3e61a18e	0.22034284
29	0xbd88af09	-0.0667401
30	0x3d998737	0.07496493
31	0xbe67f325	-0.22651346
32	0x3d3502d3	0.044192147
33	0x3bf599ce	0.0074951416
34	0x3e417d3b	0.18895428
35	0x3e166d06	0.14690027
36	0xbe35ae4f	-0.17742275
37	0x3d814177	0.063113146
38	0x3e2bbd07	0.16771327
39	0x3e1b0478	0.15138423
40	0xbe409325	-0.18806131
41	0x3e5ddb4f	0.21665691
42	0x3d36d3e0	0.044635653
43	0x3e0e1de6	0.13878593
44	0x3ccd73b3	0.025079584
45	0x3d57385a	0.052543975
46	0x3e2ffeb6	0.17187008
47	0x3cb2a8e7	0.021809055
48	0x3e147592	0.14497975
49	0x3e2e5647	0.170251
50	0x3df4282d	0.119217254
51	0x3dfe0a75	0.12404338
52	0xbbf88773	-0.007584506
53	0x3d2e6a91	0.0425821
54	0x3d93a4f2	0.07209195
55	0xbd169400	-0.036762238
56	0xbe3aa02f	-0.18225168
57	0x3dc0263b	0.09382292
58	0x3d9accc0	0.07558584
59	0xbcce8182	-0.025208239
60	0xbe5cad8c	-0.21550578
61	0x3e411834	0.18856889
62	0x3d974166	0.07385521
63	0xbdf2d917	-0.11857813
64	0x3e5ef1c1	0.2177191
65	0xbdff255d	-0.12458298
66	0xba5f01c4	-0.0008507038
67	0x3ccf9596	0.025339883
68	0xbd86bc07	-0.06578832
69	0xbdc2cd8c	-0.09511861
70	0xbdce6d1a	-0.10079403
71	0x3e0232b7	0.12714659
72	0x3b208497	0.0024493092
73	0x3d27e312	0.040988036
74	0x3e49b988	0.19699681
75	0xbe2e2dc3	-0.17009644
76	0xbd0d93b1	-0.034564678
77	0xbe30f100	-0.17279434
78	0xbd7494f1	-0.059712354
79	0xbdd3bddc	-0.10338947
80	0x3d5681b3	0.052369785
81	0x3c48417e	0.012222646
82	0x3df3a7cd	0.1189724
83	0x3e07b361	0.13252021
84	0xbe0896cd	-0.13338776
85	0x3e37713d	0.1791429
86	0x3d3cdf22	0.046111234
87	0x3dc84fa6	0.09780817
88	0x3dd6412c	0.10461649
89	0x3e0c4fd0	0.13702321
90	0x3e136e91	0.14397646
91	0xbe5d8daa	-0.21636072
92	0xbe5eb9ac	-0.21750516
93	0x3e2a1c65	0.16612394
94	0xbd3c6ec8	-0.046004087
95	0xbe3170e4	-0.1732822
96	0x3e2464e1	0.16054107
97	0xbe2d7483	-0.16938977
98	0x3e37988c	0.17929286
99	0xbc8833af	-0.016626207

weight f4 [100]
0	0x3f7b8c5e	0.9826106
1	0x3f83193b	1.0242075
2	0x3f81b72f	1.0134028
3	0x3f7cce0c	0.987519
4	0x3f7b175b	0.9808251
5	0x3f75a52d	0.95955163
6	0x3f82f688	1.0231485
7	0x3f7ef6db	0.9959542
8	0x3f748c16	0.95526254
9	0x3f7b9026	0.9826683
10	0x3f78660d	0.9703072
11	0x3f86c072	1.052748
12	0x3f841100	1.0317688
13	0x3f7b2258	0.9809928
14	0x3f7dd6a7	0.9915566
15	0x3f7fadeb	0.9987475
16	0x3f82a143	1.0205463
17	0x3f88e007	1.0693368
18	0x3f85ddcd	1.0458313
19	0x3f7c1d9c	0.9848268
20	0x3f81f12c	1.0151725
21	0x3f7d9683	0.9905779
22	0x3f81ef2c	1.0151114
23	0x3f7eca92	0.9952785
24	0x3f7c76be	0.98618686
25	0x3f822646	1.016793
26	0x3f66ca6c	0.9015262
27	0x3f84946a	1.0357792
28	0x3f83f3d7	1.0308789
29	0x3f750599	0.95711666
30	0x3f70ab72	0.94011605
31	0x3f8730c0	1.0561752
32	0x3f783a41	0.9696389
33	0x3f7e80a5	0.99415046
34	0x3f794038	0.97363615
35	0x3f6e78ae	0.9315289
36	0x3f87b6ea	1.0602696
37	0x3f7da344	0.9907725
38	0x3f7a8708	0.9786229
39	0x3f7b186f	0.9808416
40	0x3f88c130	1.0683956
41	0x3f78c9dd	0.9718302
42	0x3f848083	1.0351719
43	0x3f7e02aa	0.99222815
44	0x3f754ae2	0.9581739
45	0x3f79c32d	0.9756344
46	0x3f7a3cdf	0.9774913
47	0x3f814bbb	1.0101236
48	0x3f80d5c2	1.0065234
49	0x3f7fd91b	0.9994065
50	0x3f7790f3	0.9670555
51	0x3f7c9593	0.9866573
52	0x3f7ce51c	0.98787093
53	0x3f7f68ce	0.99769294
54	0x3f817ae0	1.0115623
55	0x3f7e39a3	0.99306697
56	0x3f780d28	0.96895075
57	0x3f8141df	1.0098227
58	0x3f81cf66	1.0141418
59	0x3f87cc1d	1.0609165
60	0x3f7df458	0.99200964
61	0x3f86e115	1.053744
62	0x3f7940e1	0.9736462
63	0x3f81abcd	1.0130554
64	0x3f88299f	1.0637702
65	0x3f77f345	0.96855575
66	0x3f845045	1.0336996
67	0x3f75bfe5	0.9599593
68	0x3f7ebce2	0.9950696
69	0x3f84d0c0	1.0376205
70	0x3f7a1ff3	0.97705
71	0x3f854926	1.0412948
72	0x3f8ae9f8	1.0852652
73	0x3f74995b	0.955465
74	0x3f6adab0	0.9173994
75	0x3f8108dc	1.0080829
76	0x3f82049a	1.0157654
77	0x3f7d32b0	0.9890547
78	0x3f68b5f1	0.9090262
79	0x3f7d6e07	0.98996013
80	0x3f7d4771	0.98937136
81	0x3f8114cb	1.008447
82	0x3f825a28	1.0183764
83	0x3f841239	1.0318061
84	0x3f802a84	1.0012975
85	0x3f805908	1.002717
86	0x3f76453b	0.9619939
87	0x3f800b5c	1.0003467
88	0x3f8799a9	1.0593768
89	0x3f84d7bb	1.0378336
90	0x3f7f9a37	0.9984469
91	0x3f815ba4	1.0106091
92	0x3f80a2ac	1.0049644
93	0x3f7bfcf2	0.9843284
94	0x3f7dbcd7	0.9911627
95	0x3f85cb7d	1.0452725
96	0x3f809cdc	1.004787
97	0x3f766e5d	0.9626215
98	0x3f842cc5	1.0326163
99	0x3f780343	0.96879977

bias f4 [100]
0	0x3c4e399d	0.012586978
1	0xbab85cb7	-0.0014065717
2	0x3be917a6	0.007113415
3	0xbb612e49	-0.0034359863
4	0xbd10a502	-0.035313614
5	0xbda33b9e	-0.079703555
6	0x3c777f96	0.015106102
7	0xbd36a1a9	-0.044587765
8	0xbcec0cb4	-0.028814651
9	0x3c0532b1	0.008129762
10	0xbcc61b1d	-0.02418285
11	0x3d8f4f2e	0.06997524
12	0x3ce20bc9	0.02759351
13	0x3d6785ad	0.056523968
14	0x3c83054a	0.015993733
15	0xbbd871c8	-0.0066053607
16	0xbc0ab3e8	-0.008465745
17	0x3d16064d	0.036627103
18	0xbb95a410	-0.004566677
19	0x3c84dbb6	0.016218048
20	0xbc27bc83	-0.010237816
21	0xbcfeedb6	-0.031119209
22	0xbcfbc67a	-0.03073429
23	0xbd0a82ad	-0.03381603
24	0xbc19da43	-0.009390417
25	0x3c7778e1	0.015104503
26	0xbd691eb7	-0.056914058
27	0x3d2204ac	0.039555237
28	0xbc86cfbf	-0.016456483
29	0xbc90fde8	-0.017699197
30	0xbd8bd684	-0.06828025
31	0xbba81a07	-0.005130056
32	0xbc99906a	-0.01874562
33	0xbd2b4be2	-0.041820414
34	0x3c199f7d	0.009376404
35	0xbd764ae7	-0.060130026
36	0x3da00865	0.07814101
37	0xbd1832a0	-0.037157655
38	0x3c9f6fa8	0.019462422
39	0xbbaf0fb7	-0.0053424495
40	0x3d9b86fe	0.07594107
41	0xbc9fadb1	-0.019492002
42	0x3befbcbf	0.0073162015
43	0xbc7d1a15	-0.015448113
44	0x3afcecd0	0.001929665
45	0xbce23d17	-0.02761702
46	0xbc512260	-0.012764543
47	0x3c191e3a	0.0093455855
48	0xbd51bcd9	-0.05120549
49	0x3d0be3c7	0.034152772
50	0xbceedff7	-0.02915953
51	0x3d109b55	0.035304386
52	0xbd48d488	-0.04903081
53	0xbba74ea5	-0.0051058107
54	0x3cf0aaa1	0.029378237
55	0xbd13d4ed	-0.036091734
56	0xbbcdfef4	-0.0062864963
57	0x3ca7373d	0.020412082
58	0x3d358236	0.044313632
59	0x3dd0379a	0.10166855
60	0x3cd08383	0.025453335
61	0xbc8998e1	-0.016796531
62	0xbd1e371d	-0.03862678
63	0x3d0613de	0.03273379
64	0x3d915c4d	0.07097683
65	0xbcd40bfd	-0.025884623
66	0x3c881a30	0.01661405
67	0x3caeb844	0.0213281
68	0xbd20f0b1	-0.03929204
69	0xbc98a2c4	-0.0186323
70	0xbd5a8f4e	-0.053359322
71	0x3c90529b	0.017617514
72	0x3d9d26ee	0.07673441
73	0xbcbe49b8	-0.023228511
74	0xbd708b3a	-0.058726527
75	0xbbd31379	-0.0064415303
76	0x3d734448	0.05939129
77	0xbbdd07cb	-0.0067453138
78	0xbda9bdaa	-0.08288129
79	0xbca8ec99	-0.020620631
80	0x3c3eca5b	0.011644925
81	0xbc2094ab	-0.00980107
82	0x3d74dda2	0.059781678
83	0x3c384d0a	0.011248836
84	0xbcd3a596	-0.025835793
85	0x3b7bc415	0.0038416435
86	0xbd900d24	-0.070337564
87	0x3d216de1	0.03941143
88	0x3cd92db2	0.026511047
89	0xbc149329	-0.009068289
90	0x3ca0f357	0.019647283
91	0xbb9ca1b3	-0.0047800182
92	0x3c41d6fa	0.01183104
93	0x3ca5a26a	0.020219047
94	0xbc4f37d6	-0.01264759
95	0x3d37b1b4	0.044847205
96	0x3c05a383	0.00815666
97	0x3b017114	0.0019751238
98	0x3d447c0c	0.047969863
99	0x3c6a01f6	0.014282694

running_mean f4 [100]
0	0xbe59045c	-0.21193069
1	0x3d66f344	0.05638434
2	0xbd5d345b	-0.05400501
3	0xbd5504a3	-0.052006375
4	0xbd3666e8	-0.044531733
5	0x3e1a4b14	0.15067703
6	0xbe0bb92c	-0.13644856
7	0x3f0691f0	0.5256643
8	0xbe9666c8	-0.2937529
9	0x3e49362d	0.19649573
10	0x3e03646f	0.12831281
11	0x3d287da0	0.04113543
12	0xbe12b2f7	-0.14326082
13	0x3e28084d	0.16409416
14	0x3e7de5a7	0.24794637
15	0x3ea80dbf	0.32822987
16	0x3e337bec	0.17527741
17	0xbbc7e128	-0.0060998388
18	0x3d8a0899	0.06739921
19	0x3dde0053	0.108399056
20	0xbd900897	-0.070328884
21	0x3eb5a93b	0.35480675
22	0xbf20f648	-0.62875795
23	0x3e70f321	0.23530246
24	0x3e3c1002	0.18365481
25	0x3f1fe188	0.6245351
26	0x3cf1dc99	0.029524134
27	0xbeb761ee	-0.35816902
28	0x3d95e8a0	0.0731976
29	0x3e3c33d2	0.18379143
30	0xbeba9d5a	-0.36448175
31	0xbeb8d172	-0.36097294
32	0xbef24926	-0.47321433
33	0x3e3121d2	0.17298058
34	0x3d2d3984	0.04229118
35	0x3e896258	0.26832843
36	0xbf0ce1d9	-0.55032116
37	0xbdf33e9d	-0.11877177
38	0xbe3778d3	-0.17917185
39	0xbe600aa4	-0.21879059
40	0xbed17ba4	-0.40914643
41	0x3edaa51f	0.42704102
42	0x3de945c6	0.11390261
43	0x3f2c91fa	0.6741024
44	0x3eb7fd3a	0.35935384
45	0x3e2e1952	0.17001846
46	0xbf1db8ee	-0.61610305
47	0xbd4196dd	-0.047263015
48	0x3e435ab0	0.19077563
49	0x3e76d3b8	0.24104202
50	0x3f09c32d	0.5381344
51	0x3da6c2c0	0.08142614
52	0xbe59472d	-0.21218558
53	0x3f2a407e	0.6650466
54	0x3e235923	0.15951972
55	0x3f024afd	0.50895673
56	0xbdb5f23e	-0.08884095
57	0x3e9aeae0	0.3025732
58	0xbe32c335	-0.17457278
59	0xbea8cd16	-0.32968968
60	0x3ea43bfd	0.32077017
61	0xbe1da92f	-0.1539657
62	0x3dab0f59	0.08352537
63	0xbdf7df61	-0.12103153
64	0x3d456aeb	0.048197668
65	0xbe8cbfbd	-0.27490035
66	0xbee6da00	-0.45088196
67	0x3d79a3c6	0.060947202
68	0x3ebe79bf	0.3720226
69	0xbed9a823	-0.4251109
70	0x3dab3826	0.08360319
71	0x3f0787b0	0.5294142
72	0xbe167e56	-0.14696631
73	0x3f0686e1	0.5254956
74	0xbea63a03	-0.32466134
75	0x3e17ff9b	0.148436
76	0x3ed926dd	0.42412463
77	0xbefeaabe	-0.4973964
78	0x3ef5a43b	0.4797686
79	0xbeb48b73	-0.3526264
80	0x3d1bedc1	0.038068537
81	0x3e593467	0.21211396
82	0x3e7188c4	0.23587328
83	0x3de019ce	0.10942422
84	0xbc8eca9e	-0.0174306
85	0xbe37333b	-0.17890637
86	0x3ea8a6c0	0.3293972
87	0x3eb98c04	0.36239636
88	0xbe87ecb1	-0.2654777
89	0x3dfb84a6	0.1228116
90	0x3e9b302c	0.3031019
91	0xbec0b2c4	-0.37636387
92	0xbd730f05	-0.059340496
93	0x3c5b8be9	0.013400056
94	0x3e4ab2ca	0.19794765
95	0xbc69dd75	-0.014273991
96	0xbeeb1765	-0.45916286
97	0xbda015a8	-0.078166306
98	0xbe407d47	-0.1879779
99	0x3ec2f7d3	0.380797

running_var f4 [100]
0	0x3d8a4203	0.06750872
1	0x3d486842	0.048927553
2	0x3d453454	0.048145607
3	0x3d470019	0.048584078
4	0x3d8e27cb	0.06941184
5	0x3d6ee85a	0.058327056
6	0x3da8bd24	0.08239201
7	0x3e159370	0.14607024
8	0x3de21e38	0.1104092
9	0x3d989504	0.074502975
10	0x3da2d9c2	0.0795169
11	0x3d9c4af3	0.07631483
12	0x3da34fa8	0.079741776
13	0x3d7a6954	0.061135605
14	0x3d1c3302	0.038134582
15	0x3da71c30	0.08159673
16	0x3d9781d7	0.07397812
17	0x3d63fe95	0.05566271
18	0x3d7d4f1a	0.061843015
19	0x3d75a770	0.059974134
20	0x3d161830	0.03664416
21	0x3d8b0576	0.06788151
22	0x3e38b801	0.18038942
23	0x3d26b02c	0.040695354
24	0x3d871806	0.06596379
25	0x3e04c678	0.12966335
26	0x3d3be7cd	0.04587536
27	0x3d84e1fe	0.06488417
28	0x3d91d2ee	0.0712031
29	0x3da37ce9	0.07982809
30	0x3da49fb3	0.08038273
31	0x3db215fb	0.08695599
32	0x3df11fb5	0.11773626
33	0x3d8e9d5c	0.06963608
34	0x3d793f8b	0.060851615
35	0x3d867db2	0.06566943
36	0x3dace995	0.0844299
37	0x3d973e4e	0.073849306
38	0x3dd2b4f9	0.10288424
39	0x3d8beac0	0.068318844
40	0x3d92e940	0.07173395
41	0x3d3074df	0.043080207
42	0x3d3446db	0.044012886
43	0x3e18ed43	0.14934258
44	0x3dc9d7f5	0.09855644
45	0x3d48eceb	0.049054068
46	0x3e65410c	0.22388095
47	0x3d83d5fa	0.06437297
48	0x3d60bc66	0.05486717
49	0x3d290f14	0.041274145
50	0x3e0615ae	0.13094208
51	0x3d5a435a	0.053286888
52	0x3d24b21d	0.040208925
53	0x3e07f583	0.13277249
54	0x3d9481c8	0.07251316
55	0x3dedc29f	0.11609387
56	0x3d997d98	0.07494658
57	0x3d8d47db	0.06898471
58	0x3d846759	0.064650245
59	0x3db7cd0a	0.08974655
60	0x3e02caa2	0.12772611
61	0x3daaa043	0.08331349
62	0x3d8aab35	0.067709364
63	0x3d66ad44	0.056317583
64	0x3d6c8be5	0.0577506
65	0x3d5e083b	0.054207068
66	0x3ddafbe3	0.10692575
67	0x3d72152c	0.059102222
68	0x3ddfbbb0	0.109244704
69	0x3d833944	0.06407407
70	0x3d983400	0.07431793
71	0x3de024fa	0.10944553
72	0x3d96c7be	0.073623165
73	0x3df717b8	0.12065071
74	0x3e0f25c9	0.13979258
75	0x3da2f6b9	0.07957215
76	0x3de45583	0.111491226
77	0x3d9c5f4e	0.076353654
78	0x3e09ed27	0.13469373
79	0x3d8288fe	0.063737854
80	0x3d55eae9	0.05222598
81	0x3d7a5a62	0.061121352
82	0x3d723bf3	0.059139203
83	0x3d4bb074	0.049728826
84	0x3db1a451	0.08673919
85	0x3da0bfaa	0.07849057
86	0x3d9f4c77	0.077782564
87	0x3d8cac65	0.06868819
88	0x3dd18ab9	0.10231537
89	0x3d32577f	0.043540474
90	0x3d260867	0.040535357
91	0x3d84b48b	0.06479748
92	0x3db4443b	0.088020764
93	0x3d822553	0.06354775
94	0x3d821ea9	0.06353504
95	0x3db2d839	0.087326474
96	0x3e279a1a	0.16367379
97	0x3d59168d	0.05300002
98	0x3ddf3985	0.10899643
99	0x3db1271f	0.0865004

weight f4 [20, 100]
0	0xbd8a1e45	-0.06744055
1	0x3da5d096	0.08096425
2	0xbc10fc7a	-0.008849258
3	0xbda51971	-0.08061493
4	0xbde0eb47	-0.109823756
5	0xbd94795a	-0.072497085
6	0xbd83dbca	-0.06438406
7	0x3aa36656	0.0012466412
8	0x3d5d8b41	0.05408788
9	0x3c30cbbe	0.010790763
10	0xbc073c2b	-0.008254091
11	0xbd69cc62	-0.05707968
12	0xbdc65808	-0.096847594
13	0x3d371cc6	0.044705175
14	0xbd740051	-0.059570614
15	0x3d86eac5	0.065877475
16	0xbd37f320	-0.044909596
17	0x3d2231d1	0.03959829
18	0x3cdc9bb7	0.02692972
19	0xbdcb4abd	-0.099263646
20	0xbd261018	-0.040542692
21	0x3d1f50ab	0.03889529
22	0x3d68a114	0.05679424
23	0xbc82c653	-0.015963709
24	0x3d0ff057	0.035141315
25	0xbd986a0f	-0.07442104
26	0xbcc1865c	-0.023623638
27	0xbe0ad636	-0.13558277
28	0x3dba68a0	0.09101987
29	0xbc584c9f	-0.013201862
30	0x3d4172f6	0.047228776
31	0x3e01c85b	0.12674086
32	0xbcea49ab	-0.02859958
33	0x3d672566	0.05643215
34	0x3c8aa6c4	0.016925223
35	0x3ca7fa47	0.020505084
36	0x3c201eaf	0.009772941
37	0x3d5336d0	0.051565945
38	0xbc4539f9	-0.012037748
39	0x3d29cd8d	0.041455794
40	0xbd594246	-0.05304172
41	0x3d10d8a9	0.035362873
42	0xbcbc154c	-0.022959374
43	0x3d052268	0.032503515
44	0xbc73829e	-0.0148626845
45	0x3d0b8a70	0.03406757
46	0xba488d76	-0.0007650474
47	0xbd026e71	-0.031843606
48	0x3d8972b4	0.06711331
49	0x3d4d8df7	0.050184216
50	0xbd3dd9c5	-0.04635026
51	0x3bbcfb69	0.005767275
52	0x3ce912a4	0.028451271
53	0xbd3a31c6	-0.045457624
54	0x3d91d85c	0.071213454
55	0x3d95dbeb	0.07317337
56	0x3ce5e889	0.028064983
57	0x3dd69263	0.1047714
58	0xbd8fdeb8	-0.07024902
59	0x3df26e38	0.11837429
60	0x3d8f1ce4	0.06987932
61	0x3dba3dc5	0.09093813
62	0x3be71ea3	0.0070532127
63	0xbdadc4c1	-0.084847935
64	0xbce70a17	-0.028203053
65	0xbd089542	-0.03334547
66	0xbd2dc851	-0.042427365
67	0x3d3f6d8f	0.046735343
68	0xbdd3365e	-0.10313104
69	0xbd8b439e	-0.06800006
70	0xbd9fef05	-0.07809261
71	0x3aeeedcb	0.0018228827
72	0xbd7ad625	-0.06123938
73	0xbccfc248	-0.025361195
74	0x3c3daa13	0.011576193
75	0x3d439e3a	0.04775832
76	0x3dafdd28	0.08587104
77	0xbd23373b	-0.039847594
78	0xbcc1f8a7	-0.023678137
79	0x3de5999d	0.1121094
80	0x3df54039	0.1197514
81	0x3daf0d1e	0.08547424
82	0xbd82afec	-0.06381211
83	0xbd02e78d	-0.031959105
84	0x3d77ee2f	0.060529884
85	0x3c8f4dc6	0.01749314
86	0x3d4b7deb	0.04968063
87	0x3da05f95	0.07830731
88	0xbd3a78b6	-0.045525275
89	0x3d91d8de	0.07121442
90	0x3c452fb5	0.0120353
91	0xbd057ed6	-0.032591663
92	0x3dbd06e3	0.09229829
93	0x3b5e8ec0	0.0033959597
94	0x3d88f67e	0.0668764
95	0x3cce862c	0.025210463
96	0xbd10d4c6	-0.035359167
97	0x3d98ac25	0.07454709
98	0xbd599dfc	-0.05312918
99	0xbd7977ba	-0.060905196
100	0x3d271054	0.040787056
101	0x3ccb6578	0.024828658
102	0xbdc39d33	-0.09551468
103	0xbb14f6e0	-0.0022730157
104	0xbd09b30d	-0.03361802
105	0x3d5b976c	0.053611204
106	0xbdac5959	-0.08415479
107	0xbda8357c	-0.08213326
108	0xbcc22a0d	-0.023701692
109	0x3da42a52	0.080158845
110	0x3c17a4b1	0.009255574
111	0xbdda3a9f	-0.10655712
112	0xbd8dc570	-0.06922424
113	0x3d04d8c3	0.032433283
114	0x3d419d81	0.047269348
115	0x3dce5880	0.10075474
116	0x3ce7ed8d	0.028311515
117	0x3da33839	0.07969708
118	0x3b40a282	0.0029393737
119	0xbcb69967	-0.022289945
120	0xbc824e12	-0.015906367
121	0x3da0ef51	0.07858146
122	0xbd061e5b	-0.032743793
123	0x3c89fdd7	0.016844673
124	0x3cf84bbb	0.030309549
125	0xbd6bf9cc	-0.05761127
126	0xbb877008	-0.004133228
127	0xbd18538b	-0.037189048
128	0x3d676edf	0.05650222
129	0xba8507d5	-0.0010149429
130	0x3d284fb9	0.041091654
131	0x3dc4a6b3	0.09602108
132	0xbd0827ea	-0.03324119
133	0x3da37e7f	0.079831116
134	0xbd273183	-0.040818702
135	0xbd5bc4dc	-0.053654537
136	0x3d42e9d7	0.04758629
137	0xbccb1928	-0.024792269
138	0x3d520e4d	0.05128317
139	0xbc48ff57	-0.012267909
140	0x3ce34925	0.027744839
141	0x3d2f175a	0.04274688
142	0x3d197551	0.037465397
143	0xbd055f20	-0.03256142
144	0x3dbf22b6	0.093327925
145	0xbda4340e	-0.08017741
146	0xbd86d298	-0.06583136
147	0x3d704c8a	0.058666743
148	0xbd9c066c	-0.076184124
149	0xbd44ce1b	-0.04804812
150	0x3d9ed9d8	0.07756394
151	0xbda4507c	-0.08023164
152	0x3db11a11	0.0864755
153	0x3dbd97e5	0.09257487
154	0x3d8c6dc9	0.06856877
155	0xbc88e070	-0.016708583
156	0xbd5a7e6d	-0.053343225
157	0x3d89031e	0.06690048
158	0xbd57cb16	-0.052683912
159	0xbcb44bd3	-0.022008812
160	0xbdae7b49	-0.085196085
161	0xbd9b8b55	-0.07594935
162	0xbd3294f6	-0.04359909
163	0xbd4326fc	-0.0476446
164	0x3dbd19e0	0.09233451
165	0x3cedf6f1	0.029048415
166	0xbdeb2974	-0.11482516
167	0x3d50e8e2	0.051003344
168	0x3d7acfe5	0.06123342
169	0xbc8679ae	-0.016415443
170	0xbc29e932	-0.0103705395
171	0xbdda5a03	-0.106616996
172	0x3b8290ce	0.003984547
173	0x3d82818b	0.063723646
174	0xbd458f0a	-0.048232116
175	0xbdb6a47a	-0.0891809
176	0x3cf43ef5	0.029815177
177	0xbda64038	-0.081177175
178	0xbcd01561	-0.02540082
179	0x3d43d891	0.047813956
180	0xbda8e975	-0.082476534
181	0xbd9f50f8	-0.077791154
182	0x3d673bd3	0.056453537
183	0xbc9d0d8b	-0.019171497
184	0x3cd95dae	0.026533928
185	0x3db3fed1	0.08788837
186	0x3cf45cad	0.029829348
187	0xbd988dae	-0.07448898
188	0xbd42318a	-0.047410525
189	0xbdb4edc3	-0.08834412
190	0xbca26a1e	-0.019825991
191	0x3c8c7901	0.017147543
192	0xbdb3307d	-0.08749483
193	0x3d6aa22e	0.057283573
194	0x3d923cbd	0.07140491
195	0x3bd22df4	0.0064141694
196	0x3d9e7ee2	0.07739045
197	0xba2c4805	-0.0006572011
198	0x3b888e86	0.0041673807
199	0x3c1fd932	0.009756373
200	0x3d0bdfcb	0.034148972
201	0xbca58592	-0.020205293
202	0x3dc24394	0.09485546
203	0xbdcd5305	-0.100256
204	0x3d58668f	0.052832182
205	0x3d3a3861	0.045463923
206	0x3d609bc2	0.054836042
207	0xbd1f2cd8	-0.038861126
208	0x3d9f7d4f	0.077875726
209	0x3afb9c83	0.0019196424
210	0xbd3914cc	-0.04518585
211	0xbdefd9ce	-0.11711465
212	0x3b4877a3	0.0030588887
213	0xbd802023	-0.062561296
214	0xbd9f5c4c	-0.07781276
215	0x3d07228b	0.032991927
216	0x3dc677db	0.09690829
217	0xbd84baa6	-0.06480913
218	0xbd8f8d1b	-0.070093356
219	0xbc939056	-0.01801316
220	0xbd03f576	-0.03221651
221	0xbc0d9a3f	-0.008642732
222	0xbdc34603	-0.09534838
223	0xbe1229df	-0.14273785
224	0xbd60002d	-0.054687668
225	0xbe0210da	-0.12701741
226	0x3d1ed512	0.03877742
227	0x3d603e23	0.05474676
228	0x3c8b16d1	0.016978653
229	0x3d18092b	0.03711812
230	0x3d0b7ec9	0.03405646
231	0xbd597561	-0.053090457
232	0xbcaa111a	-0.020760108
233	0x3b98567d	0.004648982
234	0xbc4908d4	-0.012270171
235	0xbd912b90	-0.07088387
236	0x3db2e95f	0.08735918
237	0xbd95ed31	-0.07320631
238	0x3d3764f9	0.04477403
239	0xbd2734b9	-0.040821765
240	0x3dd1a397	0.102362804
241	0xba266c32	-0.000634852
242	0xbb08743d	-0.0020821237
243	0xbdf46ed1	-0.11935199
244	0xbd531120	-0.051530004
245	0x3d212356	0.03934034
246	0x3d8a8f35	0.06765596
247	0xbcfec0fa	-0.031097878
248	0xbd708a6e	-0.058725767
249	0x3d3ed28c	0.046587512
250	0xb99f6ec3	-0.00030409367
251	0x3bffb253	0.0078032403
252	0xbdbfd428	-0.093666375
253	0xbd6b0d35	-0.057385642
254	0x3da19d16	0.0789129
255	0xbdbd3dce	-0.09240304

bias f4 [20]
0	0xbd44ab73	-0.04801507
1	0xbce9cd59	-0.0285403
2	0xbcd86965	-0.026417444
3	0xbde8de22	-0.113704935
4	0xbd2ac3e4	-0.041690722
5	0x3ca27c9f	0.019834815
6	0x3d051fb9	0.032500956
7	0x3ca0c0f6	0.019623261
8	0x3c077674	0.0082679875
9	0x3d0553b2	0.03255052
10	0x3d9a9bb0	0.07549226
11	0x3da142a9	0.078740425
12	0xbcdcc3b9	-0.026948797
13	0xbc2fcbb8	-0.010729723
14	0xbc4895b9	-0.012242728
15	0x3d304071	0.043030206
16	0xbdafb657	-0.085797004
17	0x3c82514b	0.015907904
18	0xbde6a093	-0.11261096
19	0xbd93da41	-0.07219363

weight f4 [20]
0	0x3fa31a82	1.2742465
1	0x3f89f1c3	1.0776905
2	0x3f7c6577	0.98592323
3	0x3f82e892	1.0227225
4	0x3f82a948	1.020791
5	0x3f824c2b	1.0179495
6	0x3f8d9a1c	1.1062655
7	0x3f73921d	0.95144826
8	0x3f8e5d9a	1.1122315
9	0x3f856835	1.0422426
10	0x3f82a158	1.0205488
11	0x3f7cc97a	0.9874493
12	0x3f842771	1.0324537
13	0x3f7a5010	0.97778416
14	0x3f916def	1.1361674
15	0x3f7a0001	0.97656256
16	0x3f785905	0.97010833
17	0x3f884cfa	1.0648491
18	0x3f7f3635	0.9969209
19	0x3f880da8	1.0629168

bias f4 [20]
0	0x3ec67c53	0.38766727
1	0x3e38fe8d	0.18065853
2	0xbbaf68ac	-0.005353054
3	0x3decb403	0.11557772
4	0x3d2a2d30	0.041547
5	0xbdb5ad4b	-0.08870944
6	0xbe618a2a	-0.22025362
7	0x3d630f2f	0.055434402
8	0xbe3fa979	-0.18716992
9	0xbd9606cd	-0.07325516
10	0xbe32b672	-0.1745241
11	0xbd41aab2	-0.04728193
12	0x3d984356	0.07434718
13	0xbdd58a72	-0.10426797
14	0xbea20fdc	-0.31652725
15	0xbcc827fb	-0.024433127
16	0x3dc98661	0.09840084
17	0xbe1ff697	-0.1562141
18	0x3e20d27a	0.1570529
19	0xbe5b3eb8	-0.21410644

running_mean f4 [20]
0	0x3dcd4048	0.10022026
1	0xbd911f82	-0.07086088
2	0xbea4d463	-0.32193288
3	0xbd918156	-0.07104747
4	0x3b7f8b65	0.0038992998
5	0x3da3c469	0.07996447
6	0xbd13acea	-0.036053576
7	0xbdda7217	-0.10666292
8	0x3e8e8678	0.27836967
9	0x3d65943d	0.056049574
10	0x3e1f7e2c	0.15575475
11	0xbd653e30	-0.05596751
12	0xbe0e054f	-0.13869213
13	0xbe382044	-0.17981058
14	0xbcd4487b	-0.025913468
15	0xbe145482	-0.14485362
16	0x3e47fbb0	0.19529605
17	0xbea64920	-0.32477665
18	0xbe77f11d	-0.24213071
19	0x3e3e87a6	0.18606433

running_var f4 [20]
0	0x3e884dff	0.26622006
1	0x3dfc6956	0.12324779
2	0x3ea903de	0.33010763
3	0x3e5d5713	0.21615247
4	0x3e07b2aa	0.13251749
5	0x3e8956ea	0.26824123
6	0x3e6eed5c	0.23332733
7	0x3e3bcc6b	0.18339698
8	0x3e4b7ac1	0.19871046
9	0x3ea622b9	0.32448366
10	0x3e9106b0	0.28325415
11	0x3e240884	0.16018873
12	0x3e22861d	0.15871473
13	0x3e90ff4b	0.28319773
14	0x3e92d699	0.2867935
15	0x3e117cac	0.14207715
16	0x3e58dfa9	0.2117907
17	0x3e4b3c9f	0.19847344
18	0x3e40cda3	0.18828444
19	0x3e5c588c	0.21518153
