logs/EXP1_AssortmentNN/EXP1_AssortmentNN_epoch14.pth (torch, 24443 bytes, 12 tensors)

weight f4 [100, 20]
-0.23257254 0.006626052 -0.123102404 -0.08502959 -0.19354078 0.07310991 -0.19421236 -0.007313393
0.112617455 -0.055624872 0.14140947 0.043482237 0.11044328 0.098876685 -0.11304728 0.06830882
-0.08922751 0.05659049 -0.16233933 0.06428315 0.059617918 -0.08676102 -0.13743591 0.034177974
0.25262713 0.10266383 -0.05839287 0.00764663 0.110908516 -0.15429498 0.035157513 -0.08059507
0.08448269 -0.043936115 -0.038301863 0.09588367 0.14664063 -0.10260333 0.19720615 -0.1651714
-0.028018808 -0.20398553 -0.00018048345 0.07190902 -0.109444976 0.120370485 -0.030955851 -0.19783083
0.18849176 0.11553774 0.13698316 0.11013424 0.108658284 0.092131585 0.1949669 -0.025563758
-0.1818654 -0.1392569 -0.0681925 -0.03204052 0.0034586692 0.13225678 0.050222706 -0.14868365
-0.039585285 -0.01476133 0.12722778 -0.06284062 -0.11676963 -0.025376376 -0.07745509 -0.06302573
-0.20555831 0.21703242 0.14576682 -0.10027221 -0.19015895 0.051913917 0.100518234 -0.14022383
-0.1531652 0.09067958 -0.15285306 -0.026402308 -0.1770344 0.16682203 0.1457386 -0.20456313
-0.095330305 0.102354296 -0.008542701 -0.0013955333 -0.1582216 -0.16434829 0.06973645 -0.1653104
-0.04520064 0.08314501 0.14214924 -0.019534241 -0.013085238 0.09742808 -0.05462731 -0.048555642
0.19780126 0.17701232 0.08051426 -0.11318712 -0.24353561 -0.21183744 -0.009067387 -0.12834845
-0.050691362 -0.044338174 0.20664245 0.19412012 -0.012835703 -0.067860365 0.09129795 -0.039881874
-0.2466999 0.048572157 0.21150428 -0.18331087 -0.045695912 -0.0144384615 -0.14112338 -0.18350764
0.19230254 -0.06685019 0.15101011 0.0062846118 0.12801069 -0.14678429 -0.052224986 0.14394803
0.098498054 -0.02620704 0.0013198771 0.15627879 -0.13723524 0.13896821 -0.013557791 -0.039695702
0.07089034 -0.17815305 0.014370749 0.2233985 0.11090735 -0.10910163 -0.017331133 0.21264647
0.09335394 0.20903517 -0.11290557 0.043279923 0.04573124 0.015772546 0.22606124 0.12805629
0.15948789 0.028239572 0.06551882 -0.06751285 -0.20135471 -0.1475373 -0.20504834 -0.17317015
0.06861845 0.042326193 -0.105567046 -0.20247407 0.18770646 0.16538998 0.07804273 0.18199734
-0.13645048 -0.15279554 -0.16511033 0.0046834624 -0.20364362 0.23171376 -0.0037071183 0.11291307
-0.09108639 -0.018030599 0.0037138623 -0.02375071 0.21456538 -0.07484935 0.09062082 -0.14062329
-0.080778696 -0.06663682 0.110662356 0.13589357 0.037042134 -0.004773054 -0.056468748 0.17093118
-0.086376846 0.12788667 -0.10297647 0.18666352 0.2300563 0.12996826 0.13130532 0.09470791
-0.083240405 -0.032585386 0.12063085 -0.054709606 0.049601607 0.14336136 -0.18660992 -0.19791082
-0.1715482 0.062299017 -0.014724645 0.009186576 -0.04108516 -0.16150211 0.053801168 0.14580682
-0.13438609 0.18635014 0.101641186 0.20491576 -0.15645495 -0.21079989 0.1197175 -0.17788199
-0.16815437 0.12726755 0.093789764 -0.20522727 0.18633926 -0.05191663 0.21841334 -0.12993163
-0.2910993 -0.102246456 0.012949571 -0.215367 -0.06382503 -0.10394443 -0.019393181 0.024839032
0.013571217 -0.1965259 0.11116581 -0.12647612 0.13192578 0.17858331 -0.029568402 0.028944833
00000000: 7f27 6ebe 5a1f d93b 1d1d fcbd fe23 aebd
00000010: 8e2f 46be a6ba 953d 9bdf 46be 30a5 efbb
00000020: fba3 e63d e8d6 63bd a5cd 103e 6e1a 323d
00000030: 1630 e23d dc7f ca3d 5585 e7bd 7fe5 8b3d
00000040: eabc b6bd 6ecb 673d 483c 26be e2a6 833d
00000050: eb31 743d c3af b1bd 00bc 0cbe 34fe 0b3d
00000060: 5858 813e 6a41 d23d 5d2d 6fbd 9590 fa3b
00000070: 0124 e33d 81ff 1dbe 5301 103d 070f a5bd
00000080: 4305 ad3d 5bf6 33bd 6ae2 1cbd a85e c43d
00000090: f628 163e b221 d2bd 69f0 493e b122 29be
000000a0: b387 e5bc 95e1 50be 2840 3db9 0945 933d
000000b0: b024 e0bd cd84 f63d 2097 fdbc 2a94 4abe
000000c0: fc03 413e 0d9f ec3d 5045 0c3e 0f8e e13d
000000d0: 3c88 de3d 7caf bc3d 67a5 473e 166b d1bc
000000e0: ec3a 3abe 5c99 0ebe 82a8 8bbd ec3c 03bd
000000f0: d7aa 623b 526e 073e 53b6 4d3d 8740 18be
00000100: 2e24 22bd 81d9 71bc 0048 023e 95b2 80bd
00000110: ea24 efbd 1ee2 cfbc c6a0 9ebd a213 81bd
00000120: e17d 52be bf3d 5e3e e643 153e 845b cdbd
00000130: 07b9 42be b0a3 543d 81dc cd3d d696 0fbe
00000140: 57d7 1cbe 37b6 b93d 8385 1cbe a749 d8bc
00000150: 8148 35be 65d3 2a3e 803c 153e ff78 51be
00000160: 893c c3bd 219f d13d aff6 0bbc 54ea b6ba
00000170: d804 22be eb4a 28be fcd1 8e3d 2147 29be
00000180: 4e24 39bd ee47 aa3d 928f 113e 4606 a0bc
00000190: 7763 56bc 6088 c73d e3c0 5fbd 48e2 46bd
000001a0: 6a8c 4a3e b842 353e a9e4 a43d a6ce e7bd
000001b0: 6661 79be eaeb 58be 618f 14bc c76d 03be
000001c0: bfa1 4fbd f29b 35bd 149a 533e 6dc7 463e
000001d0: d74c 52bc 60fa 8abd 6bfa ba3d 2d5b 23bd
000001e0: e69e 7cbe 99f3 463d 9494 583e d8b5 3bbe
000001f0: a32b 3bbd 4c8f 6cbc a682 10be 6de9 3bbe
00000200: f5ea 443e c1e8 88bd 65a2 1a3e 25ef cd3b
00000210: 3c15 033e 9f4e 16be dee9 55bd 1d67 133e
00000220: 59b9 c93d 25b0 d6bc baff ac3a 8c07 203e
00000230: 6587 0cbe af4d 0e3e 7f21 5ebc f697 22bd
00000240: f42e 913d c16d 36be 4a73 6b3c 94c2 643e
00000250: 6523 e33d ad70 dfbd 05fa 8dbc ffbf 593e
00000260: 5a30 bf3d 510d 563e 093b e7bd 4a46 313d
00000270: ae50 3b3d 6d35 813c 997c 673e 3021 033e
00000280: cb50 233e ad56 e73c bb2e 863d 2d44 8abd
00000290: ee2f 4ebe 0514 17be 31f8 51be 8453 31be
000002a0: d487 8c3d 3b5e 2d3d 8933 d8bd 5d55 4fbe
000002b0: 1f36 403e fe5b 293e ded4 9f3d 835d 3a3e
000002c0: adb9 0bbe 6f76 1cbe af12 29be bb77 993b
000002d0: f487 50be 5f46 6d3e 20f3 72bb f83e e73d
000002e0: 808b babd e8b4 93bc 4564 733b d990 c2bc
000002f0: 07b7 5b3e 9e4a 99bd 6997 b93d 8dff 0fbe
00000300: 4d6f a5bd e378 88bd f2a2 e23d af27 0b3e
00000310: 7eb9 173d 4767 9cbb c64b 67bd 9508 2f3e
00000320: 58e6 b0bd b9f4 023e 54e5 d2bd b924 3f3e
00000330: e193 6b3e 6616 053e e774 063e 39f6 c13d
00000340: f279 aabd 4178 05bd 4f0d f73d 2e17 60bd
00000350: 0e2b 4b3d 52cd 123e ac16 3fbe 22a9 4abe
00000360: 55aa 2fbe 412d 7f3d a33f 71bc 4b83 163c
00000370: ea48 28bd cf60 25be 9d5e 5c3d 624e 153e
00000380: 829c 09be 92d2 3e3e 4129 d03d 70d5 513e
00000390: ba35 20be eddb 57be 732e f53d b226 36be
000003a0: a930 2cbe 6d52 023e d914 c03d 1927 52be
000003b0: b8cf 3e3e 88a6 54bd bfa7 5f3e cc0c 05be
000003c0: f80a 95be 9766 d1bd 702a 543c 2b89 5cbe
000003d0: b3b6 82bd d1e0 d4bd 73de 9ebc 3a7b cb3c
000003e0: cf59 5e3c 163e 49be e6aa e33d f582 01be
000003f0: 8d17 073e 8bde 363e 6f39 f2bc b71d ed3c

bias f4 [100]
0.07923763 -0.088261224 -0.11457178 0.09277374 0.19895402 0.120228246 -0.12004125 -0.030961724
0.09812243 0.0056012464 -0.12398741 0.0685981 0.17953604 0.05796685 0.20739505 -0.04242572
-0.019022336 0.16274549 -0.058859777 -0.031711828 -0.03756884 0.17728259 -0.015420589 0.13896395
0.085032806 0.103380755 -0.026920889 -0.21049169 0.22801924 -0.07139625 0.07593788 -0.22652973
0.044053957 0.003836804 0.19669807 0.14278251 -0.17712174 0.058211733 0.16633978 0.15090573
-0.17930765 0.20875114 0.04865563 0.14476353 0.029443046 0.057526253 0.17077804 0.020181298
0.1424537 0.16648637 0.120579585 0.119811386 -0.008587384 0.043571886 0.0650384 -0.033625275
-0.17978616 0.09607502 0.07146605 -0.03081571 -0.2116472 0.18477637 0.077158116 -0.123983204
0.21361466 -0.12996946 -0.0041445815 0.030903272 -0.061889943 -0.10375492 -0.099735886 0.12914598
0.00086591137 0.03719858 0.19538394 -0.16528898 -0.022244828 -0.16427065 -0.060768057 -0.107644394
0.051276267 0.009149023 0.11357587 0.13922931 -0.13127147 0.17707461 0.043998133 0.09382052
0.10530201 0.13767971 0.14457011 -0.20941947 -0.21701315 0.1700008 -0.042020086 -0.16916656
0.16200557 -0.16524205 0.1766137 -0.011374318
00000000: 5747 a23d 4dc2 b4bd 9ca4 eabd 2900 be3d
00000010: 9aba 4b3e 3a3a f63d 30d8 f5bd 71a3 fdbc
00000020: 6af4 c83d a98a b73b 1ced fdbd 297d 8c3d
00000030: 4cd8 373e a66e 6d3d 5e5f 543e 97c6 2dbd
00000040: bbd4 9bbc c1a6 263e f316 71bd 43e4 01bd
00000050: c9e1 19bd 9189 353e a3a6 7cbc 914c 0e3e
00000060: ae25 ae3d 4ab9 d33d 3289 dcbc 228b 57be
00000070: e07d 693e 3238 92bd 5285 9b3d 69f7 67be
00000080: ec71 343d e472 7b3b 386b 493e 9435 123e
00000090: 675f 35be 6d6f 6e3d fa54 2a3e 0887 1a3e
000000a0: 6d9c 37be dcc2 553e 204b 473d e43c 143e
000000b0: 8b32 f13c a6a0 6b3d 70e0 2e3e 4053 a53c
000000c0: 62df 113e 677b 2a3e 6ef2 f63d ac5f f53d
000000d0: 19b2 0cbc 6f78 323d da32 853d a8ba 09bd
000000e0: dd19 38be fbc2 c43d cb5c 923d 3a71 fcbc
000000f0: 0bba 58be 0436 3d3e 1305 9e3d e8ea fdbd
00000100: cdbd 5a3e b716 05be 45cf 87bb dc28 fd3c
00000110: 4f80 7dbd 767d d4bd 5442 ccbd d83e 043e
00000120: 54fe 623a 8a5d 183d ba12 483e 8441 29be
00000130: c93a b6bc 9136 28be ede7 78bd aa74 dcbd
00000140: 1007 523d c9e5 153c 779a e83d 2192 0e3e
00000150: 076c 06be 0c53 353e 6337 343d f924 c03d
00000160: 95a8 d73d e9fb 0c3e 300a 143e 0f72 56be
00000170: b238 5ebe b114 2e3e 411d 2cbd 003a 2dbe
00000180: cae4 253e 3635 29be 39da 343e 595b 3abc

weight f4 [100]
0.9907958 1.0108299 1.0094211 0.979671 0.9851306 0.9626646 1.0278057 0.99459857
0.95270014 0.98599595 0.97455394 1.0430927 1.0325304 0.9810464 1.0104717 0.98751915
1.0194557 1.0708021 1.0300761 0.9963862 1.0145748 0.9857307 1.0092828 0.99239576
0.9839851 1.0155067 0.9118094 1.0358763 1.032679 0.9605352 0.949767 1.050862
0.97067654 0.99156964 0.9777671 0.9374741 1.0627027 0.97844285 0.984473 0.9766024
1.0627741 0.97891223 1.0300045 0.9999611 0.9675045 0.98259383 0.9870701 1.0073888
1.0096728 1.0013545 0.9740655 0.974533 0.98346144 0.9986605 1.0150802 1.0046281
0.9705228 1.0073072 1.0133241 1.0620394 1.0008662 1.058151 0.9812644 1.0178821
1.0511142 0.96395373 1.0286667 0.954902 0.9938685 1.0436863 0.98397326 1.0249078
1.0738904 0.9573367 0.92692906 1.0118271 1.0277466 0.9928526 0.9358051 0.9938668
0.9904605 1.0062586 1.0079594 1.0353018 0.994185 0.9946904 0.9692975 0.9939696
1.0563011 1.0329322 0.9985571 1.0043024 0.9952258 0.9800632 0.9865432 1.0263039
1.0045669 0.9653546 1.0374297 0.9704067
00000000: cba4 7d3f e062 813f b634 813f b8cb 7a3f
00000010: 8531 7c3f 3071 763f 238f 833f 039e 7e3f
00000020: 28e4 733f 3b6a 7c3f 5e7c 793f 1084 853f
00000030: f529 843f db25 7b3f 2357 813f 0ece 7c3f
00000040: 867d 823f 0b10 893f 89d9 833f 2a13 7f3f
00000050: 96dd 813f d958 7c3f 2e30 813f a60d 7e3f
00000060: 73e6 7b3f 20fc 813f 576c 693f 9897 843f
00000070: d32e 843f a3e5 753f ee23 733f a582 863f
00000080: 427e 783f 82d7 7d3f f24e 7a3f 4dfe 6f3f
00000090: a406 883f 3b7b 7a3f 6c06 7c3f 9d02 7a3f
000000a0: fb08 883f fe99 7a3f 30d7 833f 73fd 7f3f
000000b0: 60ae 773f 458b 7b3f a0b0 7c3f 1ef2 803f
000000c0: f53c 813f 622c 803f 5b5c 793f ff7a 793f
000000d0: 21c4 7b3f 37a8 7f3f 26ee 813f a797 803f
000000e0: 2f74 783f 71ef 803f 9bb4 813f e8f0 873f
000000f0: 621c 803f 7e71 873f 2534 7b3f f649 823f
00000100: e98a 863f acc5 763f 5aab 833f 7574 743f
00000110: 2b6e 7e3f 8397 853f ace5 7b3f 2e30 833f
00000120: 3e75 893f 0514 753f 394b 6d3f 8d83 813f
00000130: 338d 833f 972b 7e3f ec90 6f3f 0e6e 7e3f
00000140: d28e 7d3f 15cd 803f d004 813f c584 843f
00000150: e882 7e3f 08a4 7e3f e223 783f cb74 7e3f
00000160: e034 873f 1f37 843f 70a1 7f3f fb8c 803f
00000170: 1ec7 7e3f 6ce5 7a3f 188e 7c3f ed5d 833f
00000180: a695 803f 7b21 773f 7fca 843f 936c 783f

bias f4 [100]
0.014020345 -0.0039688903 0.0052285516 -0.01563555 -0.025421897 -0.06545692 0.021942569 -0.039441593
-0.038225036 0.00807265 -0.012733821 0.055492017 0.022573428 0.037909076 0.02419029 -0.017541835
0.00012498713 0.042586334 -0.012181197 0.026103823 -0.006121917 -0.024888713 -0.025833938 -0.03582763
-0.011788148 0.013151827 -0.053535517 0.032276362 -0.006247404 -0.017407024 -0.06412172 0.0020921882
-0.014845035 -0.03278044 0.008839928 -0.060336094 0.075544216 -0.037582714 0.019614086 -0.015861603
0.072273046 -0.011034869 0.0086355675 -0.007146783 -0.00562541 -0.023363264 -0.0016887041 0.00531137
-0.04094309 0.03864934 -0.015899256 0.013214185 -0.040812436 0.00096712663 0.032701727 -0.024352657
-0.009092308 0.020543052 0.04082108 0.08595165 0.019333368 0.0024618593 -0.035709657 0.030336386
0.062632486 -0.025787484 0.014856658 0.0081303585 -0.032894716 -0.0018488665 -0.044628724 -0.0016745885
0.06619728 -0.025269002 -0.046113625 0.0017118269 0.05110376 -0.008318454 -0.0634704 -0.017787889
0.020857507 -0.0011364609 0.04406604 0.018513689 -0.022252528 -0.010452133 -0.053613454 0.021633731
0.036256123 0.0032251913 0.0247762 -0.007988655 0.0049965885 0.010666429 -0.013450866 0.035586443
0.0019080269 -0.008968159 0.038645856 0.0028252592
00000000: 97b5 653c 770d 82bb 4554 ab3b 2016 80bc
00000010: 9541 d0bc 470e 86bd e7c0 b33c 828d 21bd
00000020: db91 1cbd 2643 043c 84a1 50bc 994b 633d
00000030: e9eb b83c 8c46 1b3d b72a c63c e5b3 8fbc
00000040: fa0e 0339 026f 2e3d a593 47bc afd7 d53c
00000050: 5d9a c8bb 6ae3 cbbc b2a1 d3bc febf 12bd
00000060: 1423 41bc c37a 573c 0f48 5bbd 3834 043d
00000070: 06b7 ccbb 2d99 8ebc 4052 83bd 181d 093b
00000080: 9738 73bc c844 06bd 58d5 103c fb22 77bd
00000090: edb6 9a3d 55f0 19bd b8ad a03c 31f0 81bc
000000a0: e403 943d 98cb 34bc 327c 0d3c 902f eabb
000000b0: 5c55 b8bb 5164 bfbc 8257 ddba 000b ae3b
000000c0: f1b3 27bd c54e 1e3d 283f 82bc 4f80 583c
000000d0: f12a 27bd c586 7d3a 3ff2 053d 397f c7bc
000000e0: e7f7 14bc e749 a83c 0134 273d 6b07 b03d
000000f0: 0361 9e3c 2557 213b 4a44 12bd 0384 f83c
00000100: 7645 803d 4640 d3bc 5769 733c 3235 053c
00000110: 9cbc 06bd aa55 f2ba 9ccc 36bd de7d dbba
00000120: 7192 873d f000 cfbc a4e1 3cbd 615f e03a
00000130: 2d52 513d 204a 08bc c5fc 81bd e8b7 91bc
00000140: 5ddd aa3c 4df5 94ba 987e 343d 05aa 973c
00000150: ef4a b6bc 6c3f 2bbc c899 5bbd 3939 b13c
00000160: 4d81 143d bb5d 533b 75f7 ca3c d9e2 02bc
00000170: 6cba a33b 3fc2 2e3c 0561 5cbc 17c3 113d
00000180: c216 fa3a 2fef 12bc 1e4b 1e3d fc27 393b

running_mean f4 [100]
-0.20102571 0.055135783 -0.032217648 -0.10060161 -0.10028042 0.13229756 -0.12043569 0.4623254
-0.2297614 0.17493053 0.06709868 0.07947243 -0.16836366 0.1605838 0.2867955 0.46809104
0.30911508 -0.0044791694 0.06048144 0.01552537 -0.05987886 0.34115693 -0.6807986 0.2370914
0.26180622 0.6204693 -0.033202052 -0.37423614 0.07448867 0.23065875 -0.38175258 -0.36612234
-0.46787354 0.08346465 0.08995539 0.27538764 -0.5247533 -0.17562436 -0.19509743 -0.18699285
-0.43261975 0.44472298 0.12036598 0.6871436 0.3225083 0.1249382 -0.6037339 -0.037718598
0.1850042 0.23899269 0.5117588 0.045771208 -0.24642643 0.65371704 0.14520039 0.5434799
-0.1044797 0.3346729 -0.22221698 -0.30314687 0.34702468 -0.19786309 0.031539425 -0.16080582
0.036751915 -0.349082 -0.4643854 0.103556246 0.39347893 -0.41353878 0.11580139 0.5298031
-0.13049807 0.4951502 -0.29794997 0.10706022 0.51949394 -0.48960048 0.4190806 -0.36657712
-0.012837067 0.25641814 0.20824137 0.13452606 -0.029397406 -0.19043 0.35541597 0.37390593
-0.25904807 0.21923761 0.35905728 -0.47380844 0.02479129 -0.0063371165 0.21074866 -0.03401421
-0.3840026 -0.052571326 -0.23693587 0.3598467
00000000: afd9 4dbe 0fd6 613d a7f6 03bd 3808 cebd
00000010: d25f cdbd 0379 073e fda6 f6bd eab5 ec3e
00000020: 9346 6bbe fd20 333e 086b 893d 71c2 a23d
00000030: 8667 2cbe 1470 243e dcd6 923e a1a9 ef3e
00000040: 5544 9e3e ffc5 92bb 63bb 773d 1f5e 7e3c
00000050: 8943 75bd 1fac ae3e d148 2ebf 17c8 723e
00000060: 770b 863e 13d7 1e3f e0fe 07bd e19b bfbe
00000070: 848d 983d cf31 6c3e 1375 c3be 6374 bbbe
00000080: 1f8d efbe 84ef aa3d 883a b83d 9cff 8c3e
00000090: 3b56 06bf dfd6 33be 9fc7 47be 0e7b 3fbe
000000a0: 5680 ddbe bbb2 e33e 7082 f63d a5e8 2f3f
000000b0: cf1f a53e 99df ff3d 4e8e 1abf d17e 1abd
000000c0: be71 3d3e 80ba 743e a002 033f 977a 3b3d
000000d0: 3657 7cbe 005a 273f 69af 143e 8021 0b3f
000000e0: 74f9 d5bd 3f5a ab3e d98c 63be 1136 9bbe
000000f0: 38ad b13e 9f9c 4abe 7c2f 013d 48aa 24be
00000100: 2d89 163d e0ba b2be ecc3 edbe 4c15 d43d
00000110: 1276 c93e 5bbb d3be 4729 ed3d 2da1 073f
00000120: 49a1 05be 5484 fd3e e68c 98be 6342 db3d
00000130: 8efd 043f eaac fabe bb91 d63e ffaf bbbe
00000140: 9052 52bc 3d49 833e 3a3d 553e 33c1 093e
00000150: d4d2 f0bc 1500 43be 15f9 b53e 9970 bf3e
00000160: f3a1 84be d37f 603e 5bd6 b73e 0597 f2be
00000170: 1a17 cb3c 96a7 cfbb 7fce 573e 7c52 0bbd
00000180: fd9b c4be 0855 57bd 519f 72be d43d b83e

running_var f4 [100]
0.056903392 0.05059201 0.056998026 0.05665556 0.055319667 0.055683706 0.07801015 0.11695952
0.08674151 0.055485405 0.05277233 0.09845066 0.0825313 0.045731593 0.039223667 0.09947135
0.08615708 0.046382606 0.073929265 0.048213303 0.04118923 0.059363715 0.15307167 0.034437533
0.081094116 0.12987778 0.04662429 0.06830953 0.09758068 0.084230386 0.092287794 0.054572146
0.10394551 0.06113576 0.053405978 0.08047843 0.07337449 0.0715607 0.0963283 0.07409305
0.078742795 0.0446794 0.035989616 0.13494156 0.074842535 0.04768595 0.17695709 0.06651019
0.062289663 0.058805242 0.13424258 0.06266722 0.039332405 0.15590094 0.06265081 0.1296268
0.06832427 0.08034088 0.06877923 0.07990191 0.123922326 0.09413311 0.07494767 0.06988928
0.065709434 0.077133596 0.09350837 0.055003654 0.09201097 0.060393192 0.09007102 0.10882553
0.06537738 0.10925247 0.13473785 0.07346744 0.101114534 0.089144595 0.11964567 0.083902135
0.060266435 0.065048344 0.06305314 0.05293997 0.092274345 0.0941763 0.076679476 0.07787255
0.09393981 0.045653064 0.04962569 0.08007339 0.078493364 0.0743535 0.06451997 0.067347474
0.12392686 0.06561147 0.12135 0.08047154
00000000: 8813 693d 9139 4f3d c376 693d a90f 683d
00000010: e096 623d 9914 643d c9c3 9f3d 7988 ef3d
00000020: 88a5 b13d aa44 633d cc27 583d 80a0 c93d
00000030: 2c06 a93d 0d51 3b3d ffa8 203d a3b7 cb3d
00000040: 2073 b03d b0fb 3d3d 3a68 973d 507b 453d
00000050: 0ab6 283d 5e27 733d d2be 1c3e 5f0e 0d3d
00000060: ac14 a63d aefe 043e 1df9 3e3d dee5 8b3d
00000070: 61d8 c73d fb80 ac3d 6201 bd3d 0b87 5f3d
00000080: 62e1 d43d 7e69 7a3d 3ac0 5a3d e0d1 a43d
00000090: 5d45 963d 6b8e 923d c647 c53d 19be 973d
000000a0: e743 a13d bf01 373d d969 133d 1f2e 0a3e
000000b0: 0b47 993d 5852 433d 3d34 353e 7f36 883d
000000c0: 7223 7f3d c4dd 703d e376 093e ac57 803d
000000d0: 041b 213d 7fa4 1f3e 114f 803d e3bc 043e
000000e0: 98ed 8b3d c289 a43d 20dc 8c3d 9da3 a33d
000000f0: fdca fd3d dcc8 c03d 2a7e 993d 1c22 8f3d
00000100: ab92 863d 38f8 9d3d 5181 bf3d 834b 613d
00000110: 3f70 bc3d da5e 773d 2877 b83d ebdf de3d
00000120: 93e4 853d c2bf df3d b8f8 093e 1976 963d
00000130: 2315 cf3d 7191 b63d ca08 f53d e2d4 ab3d
00000140: f0d9 763d 1138 853d 0122 813d 95d7 583d
00000150: 55fa bc3d 81df c03d 210a 9d3d a57b 9f3d
00000160: 8463 c03d b5fe 3a3d 4f44 4b3d 84fd a33d
00000170: 21c1 a03d a646 983d 0c23 843d 79ed 893d
00000180: 5ecd fd3d 4e5f 863d 5986 f83d 43ce a43d

weight f4 [20, 100]
-0.07566386 0.066498294 -0.010403809 -0.07772068 -0.1093399 -0.07508699 -0.077446885 0.0047682584
0.060487527 0.014259149 2.3656835e-06 -0.058554173 -0.10334001 0.04822413 -0.067322455 0.06738908
-0.042703703 0.046439633 0.020511355 -0.10822786 -0.040025372 0.040846113 0.04870616 -0.021453932
0.026741706 -0.068368465 -0.016806675 -0.12762573 0.08294835 -0.014854652 0.048073005 0.12680733
-0.023125505 0.057335466 0.013573 0.023668896 0.009490679 0.042233735 -0.012523903 0.03977997
-0.04364716 0.04241119 -0.027257405 0.03985 -0.01728448 0.032565 -0.0019708686 -0.04140503
0.061581273 0.0502738 -0.046229072 -0.00064695574 0.024808543 -0.04805185 0.072359055 0.079983056
0.022266101 0.101608574 -0.06185302 0.12287163 0.07000572 0.08348249 0.0024390495 -0.08340369
-0.024499506 -0.028383346 -0.037983418 0.042955622 -0.10001432 -0.072830044 -0.071851306 0.0037873772
-0.05314349 -0.023729585 0.014009153 0.046575326 0.08539397 -0.049096465 -0.018843321 0.10717557
0.12058915 0.0901431 -0.06875272 -0.035798803 0.053869188 0.02018852 0.052202966 0.073925704
-0.040496908 0.061262354 0.010249819 -0.02195919 0.08845839 0.0060471995 0.06366046 0.01814754
-0.03307499 0.07995404 -0.0580922 -0.057071064 0.042599402 0.032006636 -0.09610104 0.00424022
-0.033435546 0.053553328 -0.07929356 -0.078554206 -0.02286898 0.09606198 0.006816497 -0.0995701
-0.06686911 0.03346052 0.054424316 0.093846284 0.025622463 0.082103394 -0.0005465609 -0.017922206
-0.011704487 0.077884056 -0.02366742 0.022746284 0.021784492 -0.055438045 -0.0052757715 -0.041666087
0.05743202 0.0027211565 0.036588185 0.084462866 -0.0369701 0.07799177 -0.03609265 -0.050610963
0.04624606 -0.016547414 0.050710805 -0.00958229 0.029686173 0.050641645 0.028102167 -0.031529
0.10162991 -0.07980383 -0.069850035 0.067913845 -0.08902541 -0.036330435 0.082782656 -0.07091184
0.08280026 0.09228423 0.07505748 -0.015877705 -0.050351262 0.062244803 -0.04720025 -0.02211012
-0.08343178 -0.075184375 -0.042231407 -0.049094968 0.0853827 0.025400586 -0.10603068 0.058880944
0.05441027 -0.0131982835 -0.019917205 -0.09695745 0.014735512 0.0646568 -0.052159347 -0.08957841
0.03149942 -0.08534856 -0.030646574 0.059258267 -0.07795394 -0.06514545 0.0659915 -0.020385003
0.023271125 0.08079089 0.020914799 -0.07430964 -0.036696516 -0.09241988 -0.021171417 0.0019361704
-0.077905625 0.06310662 0.06784342 0.002883255 0.08426029 0.00914511 0.011455088 0.017368654
0.038879734 -0.02125614 0.08522039 -0.09372896 0.054486364 0.051801503 0.054054372 -0.043916207
0.0829769 0.0027389121 -0.053827897 -0.1155765 0.02157569 -0.04640093 -0.087574326 0.037477124
0.104039565 -0.057272475 -0.06440017 -0.0189863 -0.03663379 -0.014675377 -0.08644679 -0.12736805
-0.043732546 -0.1268529 0.041714802 0.050101705 0.03041867 0.030340405 0.033128977 -0.050864972
-0.027569424 -0.0052144923 -0.017669694 -0.072867975 0.08867312 -0.060779545 0.054247517 -0.036271222
0.10562475 -0.012240156 0.009210382 -0.1175652 -0.057965297 0.031552464 0.0735004 -0.02659444
-0.05294732 0.045129284 -0.0024336218 0.0142212855 -0.08108273 -0.06604915 0.07893064 -0.092957124
00000000: a7f5 9abd 4230 883d bd74 2abc 052c 9fbd
00000010: 99ed dfbd 35c7 99bd 799c 9ebd 0d3f 9c3b
00000020: c5c1 773d 359f 693c 22c2 1e36 80d6 6fbd
00000030: eda3 d3bd aa86 453d 5be0 89bd 4903 8a3d
00000040: 14ea 2ebd 7c37 3e3d 6e07 a83c 91a6 ddbd
00000050: a5f1 23bd 414e 273d 1c80 473d 28c0 afbc
00000060: 6c11 db3c c404 8cbd 27ae 89bc 52b0 02be
00000070: d3e0 a93d ed60 73bc 33e8 443d c8d9 013e
00000080: b371 bdbc 98d8 6a3d 4a61 5e3c 46e5 c13c
00000090: cb7e 1b3c 48fd 2c3d 0e31 4dbc 52f0 223d
000000a0: 5dc7 32bd 5bb7 2d3d ec4a dfbc c139 233d
000000b0: 2f98 8dbc e162 053d b029 01bb 5298 29bd
000000c0: a53c 7c3d e6eb 4d3d b25a 3dbd 7798 29ba
000000d0: 493b cb3c 04d2 44bd fc30 943d 28ce a33d
000000e0: 6667 b63c 2818 d03d 9859 7dbd 1fa4 fb3d
000000f0: 295f 8f3d def8 aa3d 76d8 1f3b 8ecf aabd
00000100: 30b3 c8bc 3184 e8bc 8094 1bbd 3cf2 2f3d
00000110: 4fd4 ccbd eb27 95bd c726 93bd a535 783b
00000120: fdac 59bd 8c64 c2bc a586 653c c5c5 3e3d
00000130: 09e3 ae3d 6019 49bd 4f5d 9abc de7e db3d
00000140: 72f7 f63d f29c b83d 3ace 8cbd c4a1 12bd
00000150: f0a5 5c3d 6562 a53c c7d2 553d 5c66 973d
00000160: 16e0 25bd 3cee 7a3d dbee 273c c2e3 b3bc
00000170: ac29 b53d 9627 c63b 6a60 823d 26aa 943c
00000180: a479 07bd f2be a33d 16f2 6dbd 59c3 69bd
00000190: b67c 2e3d 6419 033d 9fd0 c4bd 8bf1 8a3b
000001a0: b6f3 08bd bc5a 5b3d a964 a2bd 07e1 a0bd
000001b0: ba57 bbbc 25bc c43d ec5c df3b 69eb cbbd
000001c0: acf2 88bd e60d 093d 08ec 5e3d 7b32 c03d
000001d0: 33e6 d13c d325 a83d 1547 0fba 97d1 92bc
000001e0: 2dc4 3fbc ad81 9f3d 2de2 c1bc 6a56 ba3c
000001f0: 6475 b23c 0113 63bd 61e0 acbb 0faa 2abd
00000200: d63d 6b3d 6e55 323b 7edd 153d defa ac3d
00000210: f66d 17bd 26ba 9f3d e3d5 13bd 714d 4fbd
00000220: 826c 3d3d 718e 87bc 22b6 4f3d 0aff 1cbc
00000230: 6b30 f33c 9d6d 4f3d 8436 e63c 8d24 01bd
00000240: 5823 d03d 3170 a3bd 890d 8fbd 6a16 8b3d
00000250: f452 b6bd 39cf 14bd f489 a93d 3a3a 91bd
00000260: 2f93 a93d 84ff bc3d bcb7 993d f611 82bc
00000270: 203d 4ebd 68f4 7e3d 0d55 41bd 4820 b5bc
00000280: 48de aabd 44fa 99bd d7fa 2cbd ce17 49bd
00000290: 20dd ae3d e414 d03c 9d26 d9bd 252d 713d
000002a0: 4edd 5e3d 9d3d 58bc 6829 a3bc a191 c6bd
000002b0: 386d 713c c96a 843d 0aa5 55bd e374 b7bd
000002c0: 8905 013d 3acb aebd 860e fbbc ccb8 723d
000002d0: 51a6 9fbd fa6a 85bd 8d26 873d 73fe a6bc
000002e0: 16a3 be3c b275 a53d 8355 ab3c a72f 98bd
000002f0: 164f 16bd a246 bdbd ae6f adbc 19c7 fd3a
00000300: fc8c 9fbd 0b3e 813d 7ef1 8a3d fef4 3c3b
00000310: a990 ac3d 5fd5 153c 1fae 3b3c b548 8e3c
00000320: 5b40 1f3d 5b21 aebc 0788 ae3d f8f4 bfbd
00000330: 182d 5f3d d02d 543d 1e68 5d3d 7be1 33bd
00000340: cbef a93d 527f 333b a47a 5cbd 5fb3 ecbd
00000350: 80bf b03c e70e 3ebd 2b5a b3bd 9d81 193d
00000360: b212 d53d 8b96 6abd 3de4 83bd 2889 9bbc
00000370: 500d 16bd fe70 70bc 040b b1bd c56c 02be
00000380: e620 33bd bae5 01be 24dd 2a3d 7237 4d3d
00000390: 9330 f93c 718c f83c 40b2 073d ca57 50bd
000003a0: 46d9 e1bc 55de aabb 09c0 90bc ce3b 95bd
000003b0: 419a b53d f9f3 78bd a532 5e3d 2291 14bd
000003c0: ca51 d83d ef8a 48bc 24e7 163c 06c6 f0bd
000003d0: 056d 6dbd 283d 013d 6187 963d 95dc d9bc
000003e0: 4adf 58bd 7cd9 383d 667d 1fbb 6500 693c
000003f0: b40e a6bd c744 87bd 63a6 a13d 4e60 bebd

bias f4 [20]
-0.036013246 -0.026004612 -0.023246959 -0.10945115 -0.03606459 0.021759706 0.03437662 0.01903441
0.008475282 0.037380017 0.074045815 0.08295568 -0.027245395 -0.0051741498 -0.014441104 0.05088017
-0.081026435 0.021697864 -0.113740824 -0.07380214
00000000: a082 13bd a007 d5bc 6870 bebc ed27 e0bd
00000010: 77b8 13bd 6941 b23c 80ce 0c3d 0dee 9b3c
00000020: e9db 0a3c ca1b 193d 55a5 973d abe4 a93d
00000030: bc31 dfbc ea8b a9bb 619a 6cbc ba67 503d
00000040: 30f1 a5bd b8bf b13c f3f0 e8bd 9425 97bd

weight f4 [20]
1.2200782 1.0388374 0.9856635 0.9987691 0.99766284 0.99968636 1.076598 0.9494208
1.0725929 1.0233239 1.005266 0.96400553 1.0197767 0.97193277 1.0848328 0.9625041
0.9513118 1.0382379 0.9604054 1.0275484
00000000: 862b 9c3f a0f8 843f 7154 7c3f 55af 7f3f
00000010: d566 7f3f 72eb 7f3f f7cd 893f 3e0d 733f
00000020: b94a 893f 47fc 823f 8eac 803f 11c9 763f
00000030: 0b88 823f 96d0 783f cddb 8a3f ab66 763f
00000040: 2c89 733f fbe4 843f 21dd 753f b586 833f

bias f4 [20]
0.31549057 0.13705178 -0.006265444 0.0898255 0.023100942 -0.08098787 -0.18502498 0.039423503
-0.1636124 -0.066159464 -0.15007754 -0.049272012 0.058579005 -0.09513181 -0.2522777 -0.031183163
0.06327467 -0.13366845 0.11963798 -0.17657748
00000000: fb87 a13e 4d57 0c3e 5b4e cdbb 6ff6 b73d
00000010: 303e bd3c f8dc a5bd 3077 3dbe 8a7a 213d
00000020: 028a 27be 9d7e 87bd edad 19be 73d1 49bd
00000030: 8af0 6f3d 77d4 c2bd 8b2a 81be d573 ffbc
00000040: 2696 813d 62e0 08be c204 f53d bad0 34be

running_mean f4 [20]
0.09013602 -0.026283927 -0.30548626 -0.06616297 -0.04292498 0.10870908 0.007179958 -0.112162046
0.31589618 0.0534357 0.18158978 -0.087516785 -0.18053582 -0.16943076 0.012166774 -0.12733717
0.2702364 -0.29615882 -0.28231102 0.1717156
00000000: 3c99 b83d 6451 d7bc b268 9cbe 7480 87bd
00000010: 1bd2 2fbd dea2 de3d da45 eb3b 37b5 e5bd
00000020: 25bd a13e 64df 5a3d acf2 393e 003c b3bd
00000030: 62de 38be 427f 2dbe 2657 473c ad64 02be
00000040: 6d5c 8a3e 21a2 97be 128b 90be 37d6 2f3e

running_var f4 [20]
0.29472372 0.17090234 0.40389997 0.20627044 0.14271566 0.25063953 0.27737212 0.1996673
0.21198831 0.31816453 0.26339224 0.1256602 0.2099216 0.28414157 0.27999637 0.14923893
0.18839616 0.23401043 0.18307503 0.25272748
00000000: 07e6 963e 0601 2f3e facb ce3e 8f38 533e
00000010: 0e24 123e d353 803e b803 8e3e 9675 4c3e
00000020: 7713 593e 76e6 a23e 59db 863e 11ad 003e
00000030: b0f5 563e 017b 913e af5b 8f3e 17d2 183e
00000040: ecea 403e 6ea0 6f3e 0578 3b3e 7f65 813e
