logs/EXP1_AssortmentNN/EXP1_AssortmentNN_epoch9.pth (torch, 24443 bytes, 12 tensors)

weight f4 [100, 20]
000000 d8 80 7c be 6f c5 e8 bb 89 f2 00 be 40 2c a3 bd
       -0.24658525 -0.007103614 -0.1259252 -0.079674244
000010 5c 86 41 be 45 12 8b 3d 85 3a 44 be f9 92 3f bc
       -0.1889891 0.06790594 -0.19162948 -0.011692756
000020 a8 b6 c6 3d 4c dd 4f bd 1a 77 0f 3e c0 84 10 3d
       0.09702808 -0.050748155 0.14010277 0.03528285
000030 a6 4d dc 3d e3 30 d9 3d 44 5e df bd c2 83 86 3d
       0.10756998 0.106050275 -0.109066516 0.065680996
000040 c9 d4 dd bd 04 17 79 3d e5 cf 19 be a7 7c 83 3d
       -0.10831601 0.060812965 -0.15020712 0.0642026
000050 65 5b 94 3d fd 4e 8d bd 1e 81 06 be 0a 7d 14 3d
       0.072439946 -0.068998314 -0.13135192 0.03625206
000060 35 e2 80 3e 43 aa ea 3d 65 43 7b bd 7a 24 0f 3c
       0.25172582 0.11458256 -0.06134357 0.008736724
000070 3b 29 d6 3d 4e 94 1f be 7f d0 42 3d 7e c7 a5 bd
       0.10457083 -0.15583917 0.04756212 -0.08094691
000080 bf 7d c7 3d 95 3c 25 bd 3e e1 da bc a3 82 c1 3d
       0.09740781 -0.04034098 -0.026718732 0.09448745
000090 65 de 0c 3e 88 f1 b0 bd 15 c2 49 3e 17 c9 30 be
       0.13756712 -0.086398184 0.19702943 -0.1726421
0000a0 49 73 f7 bc f9 68 62 be 01 52 3b 38 1e ed 5b 3d
       -0.03020634 -0.22110356 4.4660646e-05 0.05369293
0000b0 4f a7 f2 bd 4b 95 d4 3d 73 1f dc bc 57 ed 46 be
       -0.11848318 0.10380038 -0.026870465 -0.19426475
0000c0 40 48 41 3e 6b f6 fb 3d e7 2a fa 3d 62 0e 02 3e
       0.18875217 0.1230286 0.12215214 0.12700799
0000d0 2f 81 bd 3d 83 55 b8 3d 73 4a 46 3e 07 a6 af bc
       0.092531554 0.09000685 0.19364338 -0.021441473
0000e0 74 bb 3a be f8 63 0d be 9f cd 7d bd f1 ff be bc
       -0.1823557 -0.13807666 -0.061963674 -0.023315402
0000f0 69 10 18 bc 5b c4 0b 3e 53 34 8a 3d 63 0e 24 be
       -0.009281256 0.13649122 0.06748261 -0.16021113
000100 dd 80 61 bd 14 99 c2 bc 01 c8 fe 3d d6 73 97 bd
       -0.055054534 -0.023754634 0.124404915 -0.07395141
000110 68 72 f5 bd 30 f0 26 bd cd 05 94 bd 2c 90 82 bd
       -0.11984712 -0.040756404 -0.07227669 -0.06375155
000120 13 4f 52 be 21 65 53 3e 73 cc 10 3e 97 6e db bd
       -0.20537977 0.20644046 0.14140491 -0.10714453
000130 05 e5 33 be 5d 7e 14 3d e5 aa ca 3d aa f2 0b be
       -0.17567833 0.036253322 0.09895877 -0.13666788
000140 c1 f8 14 be 49 e3 ad 3d 21 ab 18 be 11 98 9f bc
       -0.14548017 0.08490617 -0.1490903 -0.01948169
000150 70 05 30 be 4f 02 33 3e 71 95 13 3e 10 4e 56 be
       -0.17189574 0.1748135 0.14412476 -0.20928216
000160 67 21 ca bd 6a 0e cd 3d 79 ac 28 b8 91 57 96 3c
       -0.09869652 0.10012515 -4.021495e-05 0.018352302
000170 2e 7a 25 be a6 f5 26 be c9 f8 94 3d 3c 64 26 be
       -0.16159889 -0.16304645 0.072740145 -0.16249174
000180 25 18 60 bd c7 7a af 3d 71 ff 0a 3e 09 ea bc bc
       -0.054710526 0.0856834 0.13574006 -0.023060815
000190 b9 be 6c 3b 1c 1f c8 3d ee e0 5f bd b6 7b 25 bd
       0.0036124422 0.09771559 -0.05465787 -0.040401183
0001a0 9e 82 5f 3e dc 90 42 3e 8f 79 c2 3d d3 58 e1 bd
       0.2182717 0.19000572 0.09495842 -0.1100327
0001b0 17 ae 5a be 0a 09 54 be e9 2f 97 3b 22 34 e9 bd
       -0.21355473 -0.20706573 0.0046138656 -0.11386897
0001c0 28 c4 5e bd 5e 68 38 bd 4e a2 51 3e a9 79 50 3e
       -0.054386288 -0.045021407 0.2047207 0.2035891
0001d0 bf ef 8b bc 63 da 72 bd d5 54 cf 3d ad 72 1c bd
       -0.017082093 -0.0592903 0.10123602 -0.0381953
0001e0 2f fb 78 be 23 c6 52 3d f0 b8 62 3e ee a6 3e be
       -0.24314569 0.05145849 0.2214086 -0.18618366
0001f0 3a e6 65 bd 90 e3 28 3b f3 0a 12 be db 72 38 be
       -0.056127764 0.0025770403 -0.1426199 -0.18012564
000200 72 61 3d 3e ff 5e 69 bd 09 6b 0f 3e 9a fa cf 3b
       0.18494204 -0.05697536 0.14005674 0.0063470127
000210 b6 d7 e4 3d f2 01 1c be a6 0f 2f bd 19 8e 15 3e
       0.11173956 -0.15235117 -0.042739533 0.14604987
000220 2d 98 be 3d 75 7f 23 bd 68 e3 11 bb c5 0a 2a 3e
       0.09306369 -0.039916474 -0.0022260789 0.16605671
000230 a2 49 1e be 67 4f 0f 3e 24 aa 8a bc ec 86 09 bd
       -0.15457776 0.13995133 -0.016926832 -0.033575937
000240 93 74 94 3d 01 8f 36 be ad 9e e3 3c 3f 32 58 3e
       0.07248797 -0.17827989 0.027785623 0.21112917
000250 ab 61 da 3d 46 2e d4 bd 0e 9e c0 bc a8 a0 50 3e
       0.1066316 -0.103603885 -0.023512866 0.20373785
000260 1d e3 d4 3d 6b 3f 46 3e 3b 47 e7 bd 37 0f 51 3d
       0.10394881 0.1936013 -0.11292883 0.0510399
000270 0a be 61 3d ca 2d c9 3c 4b 6c 6e 3e 4a 44 06 3e
       0.055112876 0.024557967 0.23283498 0.13111988
000280 4f 00 3c 3e e2 75 2b 3d 01 76 b0 3d 55 ba 55 bd
       0.18359493 0.04186047 0.086162575 -0.052179653
000290 c2 97 52 be 64 ad 1b be cc db 3e be 88 72 26 be
       -0.20565704 -0.15202862 -0.18638533 -0.16254628
0002a0 79 90 ba 3d 36 1b 36 3d a7 94 c5 bd a8 fb 3f be
       0.09109587 0.044459544 -0.09647494 -0.18748343
0002b0 d8 6a 51 3e 3e cc 2f 3e 90 df be 3d 8c 22 42 3e
       0.20450914 0.17167756 0.09319985 0.18958491
0002c0 53 15 ef bd fd 6e 0b be 04 5d 1a be 90 cb 5b bb
       -0.11673989 -0.13616557 -0.15074545 -0.003353808
0002d0 6c 85 56 be f1 0a 62 3e 30 d3 84 3b 97 03 f8 3d
       -0.20949334 0.22074486 0.004053496 0.1211006
0002e0 59 9d b7 bd 10 36 40 bc e4 6d a1 3b b7 6b 46 bd
       -0.089655586 -0.0117316395 0.00492643 -0.04844257
0002f0 7c 04 53 3e f3 f1 a7 bd 71 9e b2 3d f9 76 0e be
       0.2060718 -0.08200445 0.087216265 -0.13912572
000300 89 9b 83 bd 17 9f 85 bd 1c 8b d8 3d dd d4 0e 3e
       -0.0642615 -0.065244846 0.10573408 0.13948388
000310 73 f9 24 3d 32 9c ec ba c5 c2 3f bd 81 50 38 3e
       0.040276956 -0.0018051921 -0.046816606 0.1799946
000320 02 02 8d bd 8a 87 07 3e ab 77 c9 bd db 7a 48 3e
       -0.068851486 0.13235298 -0.09837278 0.19578116
000330 06 ef 6d 3e d2 10 10 3e ec a9 0a 3e 13 be b5 3d
       0.23235711 0.14068916 0.13541383 0.088741444
000340 76 d0 aa bd c1 0c b5 bc ce 40 e0 3d 90 46 49 bd
       -0.08340542 -0.022100808 0.109498605 -0.04913956
000350 f7 27 77 3d 3b e9 12 3e 17 93 40 be 01 00 4f be
       0.060340848 0.14346783 -0.1880611 -0.20214845
000360 39 47 1d be 0e 67 63 3d 2e 66 9f bc 30 0c a1 3c
       -0.153592 0.055518202 -0.019457903 0.019659132
000370 1a 37 55 bd be a5 2d be 2f d3 6b 3d f7 69 13 3e
       -0.052054502 -0.16957757 0.057574447 0.14395891
000380 ec 9e 09 be e1 9e 33 3e 5e 7b ac 3d 1c a4 5c 3e
       -0.1343953 0.17541076 0.08421968 0.21546978
000390 92 87 2f be 6c 60 4f be 3e d0 da 3d 44 b9 46 be
       -0.1714156 -0.20251626 0.1068425 -0.1940661
0003a0 da 82 2c be 9d 19 eb 3d fe 6d c8 3d e7 28 4d be
       -0.16846791 0.11479495 0.09786604 -0.20035134
0003b0 3f a6 3a 3e dd fe 3b bd 2a be 53 3e 47 fc 13 be
       0.1822748 -0.045897353 0.2067801 -0.14451705
0003c0 0e ec 95 be cc 65 e5 bd 74 9a 82 bb 9b 73 53 be
       -0.29281658 -0.11201057 -0.0039856974 -0.20649569
0003d0 2b 2b 53 bd e6 9b cc bd 89 bd 84 bc 19 be dd 3c
       -0.05155484 -0.09990673 -0.016203659 0.027068185
0003e0 ef fe 96 3c 9f d5 45 be 79 c3 f5 3d 00 e4 12 be
       0.018432109 -0.19319771 0.12000174 -0.14344788
0003f0 fe 83 07 3e 5e 52 39 3e 0e 91 09 bd 6a 70 0c 3d
       0.13233945 0.18097827 -0.0335856 0.034286894

bias f4 [100]
000000 8a 1b aa 3d b3 36 b2 bd 1b 06 eb bd 3e d6 bd 3d
       0.08306034 -0.08701839 -0.11475774 0.09269379
000010 8b 69 48 3e bf c6 ec 3d 11 4c fa bd d2 63 f3 bc
       0.19571511 0.11561345 -0.1222154 -0.029710684
000020 cb ae cc 3d 1e 4d 4c 3c 83 67 ef bd c5 50 8e 3d
       0.099942766 0.012469558 -0.11689665 0.06948999
000030 98 22 38 3e 14 f2 86 3d aa 8f 50 3e 70 ac 42 bd
       0.17981946 0.065891415 0.20367303 -0.04752773
000040 4d b2 88 bc 8a 7f 21 3e a0 14 86 bd 17 ef 2d bd
       -0.016686583 0.15771309 -0.06546903 -0.042464342
000050 09 9e 0f bd d0 d9 30 3e 49 ce a9 bc 66 b3 11 3e
       -0.035062823 0.17270589 -0.020728247 0.14228591
000060 3c 40 a4 3d 25 99 d5 3d d8 fa f5 bc 46 0b 5d be
       0.08020064 0.104296006 -0.030026838 -0.21586332
000070 9b d9 66 3e f9 a2 88 bd 3a 7b 90 3d 09 dc 5f be
       0.22543947 -0.066717096 0.070547536 -0.2186128
000080 98 7a 23 3d f8 9a 32 3b d1 3a 4d 3e 83 ce 16 3e
       0.039911836 0.0027253013 0.20041968 0.14727215
000090 86 f6 27 be 20 42 75 3d cf 94 25 3e 1c 40 18 3e
       -0.16402635 0.059877515 0.16170047 0.14868206
0000a0 ad 5b 37 be 1a a1 55 3e 62 c6 36 3d 59 6f 1a 3e
       -0.17906065 0.20862237 0.044622786 0.15081538
0000b0 46 ad b6 3c 51 72 68 3d fa 1c 29 3e 14 48 e1 3c
       0.02229942 0.056749646 0.1651496 0.02750019
0000c0 32 25 0f 3e 5b 74 1b 3e 7b 6e f8 3d 7d a6 f5 3d
       0.13979033 0.15181105 0.121304475 0.11994646
0000d0 94 b4 85 bc 11 a9 2b 3d 6d 04 77 3d 6f e8 11 bd
       -0.016321458 0.04190928 0.060306955 -0.035622057
0000e0 61 6a 39 be b0 a9 be 3d db e5 8f 3d 36 61 09 bd
       -0.18106987 0.09309709 0.07026263 -0.033539973
0000f0 e1 0a 59 be 89 05 40 3e 31 e5 a3 3d bb 34 f2 bd
       -0.21195556 0.18752111 0.08002699 -0.11826464
000100 69 40 5d 3e 37 0c 05 be 84 90 9e bb 06 f0 fe 3c
       0.21606602 -0.12992941 -0.004839005 0.031120311
000110 6e 5c 74 bd 9e ad e4 bd ea b4 c6 bd 6c f0 00 3e
       -0.05965846 -0.11165927 -0.09702475 0.12591714
000120 bf b3 8d 3b f2 7b f8 3c 30 1e 48 3e cd 54 21 be
       0.004324406 0.03033254 0.19542766 -0.15755005
000130 67 ec c0 bc 8c 24 25 be f2 77 79 bd 10 90 db bd
       -0.023550225 -0.16127223 -0.060905404 -0.10720837
000140 b3 69 5b 3d 8e 55 a5 3b d3 38 e6 3d 7a 90 13 3e
       0.0535676 0.0050455993 0.11241307 0.14410582
000150 b1 de 0f be 63 95 33 3e 43 3c 35 3d a0 00 a5 3d
       -0.14049794 0.17537455 0.044246923 0.0805676
000160 c3 9a da 3d 30 09 11 3e 70 a7 15 3e 19 ef 55 be
       0.1067405 0.14163661 0.14614654 -0.2089199
000170 c9 a5 5e be 03 51 2d 3e 57 f7 3e bd 13 79 2f be
       -0.2174293 0.16925435 -0.0466226 -0.1713603
000180 0c d2 22 3e 24 17 24 be ed 48 40 3e 4d 8e 86 bc
       0.15900439 -0.16024452 0.18777819 -0.016425276

weight f4 [100]
000000 ea 3a 80 3f ce 02 81 3f 70 4f 81 3f eb 57 7a 3f
       1.0017979 1.0078981 1.0102367 0.977904
000010 28 f1 7b 3f 47 75 77 3f 2f 9f 82 3f b9 bb 7e 3f
       0.9841485 0.96663326 1.0204829 0.9950519
000020 8a 3b 75 3f ad 57 7b 3f ea 0b 79 3f 04 12 85 3f
       0.95793974 0.9818066 0.97283804 1.0396123
000030 be fd 83 3f 33 ef 7b 3f 2e ef 81 3f bd 0d 7e 3f
       1.0311811 0.98411864 1.0151117 0.9923971
000040 9c b7 82 3f 9e d5 88 3f 27 c5 82 3f e2 d0 80 3f
       1.0212283 1.0690191 1.0216416 1.0063746
000050 af 6d 81 3f 74 6e 7b 3f 1c ff 80 3f 59 de 7f 3f
       1.0111598 0.98215413 1.0077853 0.9994865
000060 86 ae 79 3f 08 d2 81 3f 70 a7 6b 3f 40 f9 84 3f
       0.97531927 1.0142221 0.92052364 1.0388565
000070 cc 1e 84 3f 1a 29 79 3f b3 3d 76 3f b9 7f 85 3f
       1.0321898 0.9732834 0.96187896 1.0429603
000080 4b 8b 79 3f 5a 27 7a 3f 0b 31 7c 3f 1e c6 73 3f
       0.9747817 0.97716296 0.98512334 0.9522418
000090 48 3f 87 3f e5 24 7d 3f 28 1a 7f 3f 44 9b 7a 3f
       1.0566187 0.9888442 0.99649286 0.97893167
0000a0 20 3a 85 3f 67 15 7a 3f e4 83 82 3f a8 c7 80 3f
       1.0408363 0.9768891 1.01965 1.006093
0000b0 e8 bc 7a 3f 24 a8 7d 3f 89 76 7f 3f 99 4b 7f 3f
       0.979445 0.9908469 0.99790245 0.9972473
0000c0 c1 e4 81 3f 8c 28 80 3f cb 20 7a 3f 8c a4 7a 3f
       1.0147935 1.0012374 0.9770629 0.9790733
0000d0 03 d8 7d 3f 57 f1 7e 3f 3a 80 81 3f cd 12 81 3f
       0.9915773 0.99587005 1.0117257 1.0083863
0000e0 4b 26 7b 3f b6 fe 80 3f 15 7c 7f 3f 6e 48 87 3f
       0.98105305 1.0077732 0.9979871 1.0568979
0000f0 99 28 81 3f 37 1e 86 3f d5 47 7a 3f 60 9e 81 3f
       1.0090514 1.0477971 0.97765857 1.0126457
000100 bd 18 85 3f 4c 84 76 3f 79 8c 81 3f c1 0a 75 3f
       1.0398175 0.9629562 1.0120994 0.95719534
000110 7e d4 80 3f 12 21 87 3f d4 1a 80 3f 16 86 81 3f
       1.0064847 1.0556967 1.0008187 1.0119045
000120 75 d2 86 3f 1d 7b 76 3f 6f df 6d 3f 70 c9 80 3f
       1.0532976 0.96281606 0.9291906 1.0061474
000130 40 ef 83 3f bd 09 7e 3f fd bc 76 3f e7 14 7f 3f
       1.0307388 0.9923361 0.96382123 0.9964127
000140 76 30 7d 3f a0 dd 80 3f 9a 29 81 3f 50 5f 85 3f
       0.9890207 1.0067635 1.0090821 1.0419712
000150 3b e2 7f 3f c5 d8 7f 3f 50 f0 76 3f dd 96 7c 3f
       0.99954575 0.9994014 0.9646044 0.986677
000160 31 6c 86 3f ff 9f 83 3f 02 73 7e 3f f1 5d 80 3f
       1.0501767 1.0283202 0.9939424 1.0028669
000170 88 b0 7d 3f 37 06 79 3f 56 4a 79 3f 27 a3 81 3f
       0.9909749 0.9727511 0.9737905 1.0127915
000180 2d 9b 81 3f a6 f1 76 3f ec 48 82 3f e1 7a 78 3f
       1.0125481 0.96462476 1.0178504 0.970625

bias f4 [100]
000000 82 59 13 3c 7e 1b 3f bb 16 aa d8 3a 29 06 8f bc
       0.008993508 -0.0029160674 0.0016530182 -0.017458992
000010 2c d6 b1 bc eb df 57 bd c5 94 7e 3c 85 62 bf bc
       -0.02170857 -0.05270378 0.015538399 -0.023362407
000020 c3 0b d5 bc e8 b0 47 3a 15 bb 95 bb 20 06 40 3d
       -0.026006585 0.00076176086 -0.004569421 0.04688084
000030 b2 1d c9 3c d3 d1 a8 3c ec 08 e6 3c 21 5e 85 bc
       0.024550293 0.020607864 0.028080426 -0.016280236
000040 ab 12 ab 3b 29 af 3e 3d 31 cb c2 38 27 7d e5 3c
       0.0052207313 0.046553764 9.288488e-05 0.028013779
000050 a0 5d 0d 3c e5 7d c1 bc 6a 61 bf bc 4e 4a da bc
       0.008628279 -0.023619602 -0.02336188 -0.02664676
000060 46 17 c9 bc cd e7 80 3c f3 e0 65 bd 17 28 29 3d
       -0.02454723 0.015735531 -0.05612273 0.041298
000070 52 15 21 ba eb 25 08 bc 0c 41 3b bd 35 d0 12 3c
       -0.00061448396 -0.008309822 -0.04571633 0.008960773
000080 24 35 21 bc 52 2e 0b bd e7 c9 9b 3b 2f 28 39 bd
       -0.00983933 -0.03397972 0.0047542932 -0.045204338
000090 6d cf 84 3d 7a 50 a6 bc 95 fa 9e 3c b4 64 a0 bc
       0.06484876 -0.020302046 0.019406596 -0.019579269
0000a0 43 c3 4e 3d 5a ff 8d bc 88 16 5a 3c 8d ae 97 ba
       0.050479185 -0.017333675 0.013311036 -0.0011572406
0000b0 69 d3 07 3b 6b 47 41 bc 0b 51 05 3c 4f 6c 94 bb
       0.0020725376 -0.0117968125 0.008136998 -0.004529513
0000c0 75 58 94 bc af aa dd 3c 57 78 bd bb 02 2f fe 3a
       -0.018108586 0.027058927 -0.005782168 0.0019392672
0000d0 ef 44 a4 bc 6c e8 9c b9 00 b3 bf 3c f7 23 75 bc
       -0.020052401 -0.00029927806 0.023400784 -0.014962188
0000e0 04 52 07 bc 9e bc 2b 3c 17 13 be 3c 6e ca 87 3d
       -0.0082593 0.010481982 0.023202462 0.06630407
0000f0 85 33 be 3c 4f 5b 12 3c 3f 85 17 bd 52 85 d7 3c
       0.023217926 0.0089329025 -0.036992308 0.02630869
000100 25 ee 43 3d ee b9 db bc 5e d1 e3 3b 9c 50 8d bb
       0.047834534 -0.026822057 0.0069524487 -0.004312588
000110 e3 e9 26 bc 5b 01 99 3c d4 7d 55 bc 90 ed 40 bb
       -0.010187599 0.018677404 -0.013030488 -0.0029438473
000120 da 59 59 3d 28 6d 9b bc 90 ae 31 bd ea 55 12 3c
       0.053064205 -0.018972948 -0.043379366 0.008931616
000130 57 e7 1e 3d a8 fb af bb 8e e5 12 bd 30 f4 4f bc
       0.03879484 -0.005370576 -0.03586345 -0.012692496
000140 3b 7d 59 3c cb fa 06 bc 43 3f 0e 3d 5f ba ec 3c
       0.013274486 -0.008238505 0.0347283 0.028897462
000150 6e c2 dc bb 46 40 00 bc 5b 66 7c bd 72 f5 c9 3b
       -0.006737045 -0.007827824 -0.06162105 0.0061632926
000160 5c 34 c5 3c 53 59 76 3b 11 c1 05 3c 75 19 22 3b
       0.024072818 0.0037589862 0.008163706 0.0024734412
000170 00 ca d8 bb 8a 6c ca 3a ff b9 a7 bc 2f 44 d0 3c
       -0.006615877 0.0015443724 -0.020474432 0.025423137
000180 a1 de 5b 3c b4 85 53 bc 4f b6 cd 3c f7 21 6e bb
       0.013419778 -0.012910295 0.025111346 -0.0036336163

running_mean f4 [100]
000000 4f 92 48 be 42 7a c9 3d 4f fd 85 bd 0f 03 0c be
       -0.19587062 0.09837772 -0.065424554 -0.13673042
000010 94 ee a5 bd a7 86 4a 3e 1c a3 e3 bd 19 a8 ef 3e
       -0.08102146 0.19777928 -0.11115095 0.46807936
000020 5a 22 bc bd 33 f5 4f 3e 6f 47 d1 3d 45 97 11 bb
       -0.091862395 0.2030838 0.10218703 -0.0022215408
000030 23 9a fa bd 16 a5 14 3e 18 4b a4 3e 0f 7d d5 3e
       -0.122364305 0.145161 0.32088542 0.41696975
000040 1f a8 ab 3e 60 0b 88 3d 92 6d 09 3e b3 9e 83 bc
       0.33526704 0.066427946 0.13420704 -0.016066885
000050 28 11 2e bd 50 e5 ba 3e 95 c9 28 bf 22 41 8e 3e
       -0.04249683 0.36503077 -0.6593259 0.27784067
000060 b5 3e 21 3e c1 92 1d 3f 16 b6 9d bd af ce 65 be
       0.15746577 0.61552054 -0.07700746 -0.22442125
000070 a2 16 1d 3c 7c 71 3e 3e f8 c7 b2 be c4 7b a0 be
       0.009587916 0.18597978 -0.3491819 -0.31344426
000080 08 cf dc be c6 d6 47 3e be 88 63 3d 6b 27 a3 3e
       -0.43126702 0.19515523 0.05555033 0.3186601
000090 50 73 05 bf 57 2f 54 be c6 ec 2f bd e6 a8 e7 bd
       -0.5212908 -0.20721184 -0.042950414 -0.11311512
0000a0 b9 81 fb be 8e 92 b8 3e 57 f8 c1 3d c9 1d 2e 3f
       -0.49122408 0.36049312 0.09471195 0.680142
0000b0 68 80 88 3e fb 9e 1b 3d c8 ad 0a bf 54 b7 32 bd
       0.26660466 0.037993412 -0.5417142 -0.043631867
0000c0 95 03 4b 3e 1c 36 6f 3e cf a8 fa 3e 89 6c 97 3d
       0.19825585 0.23360485 0.48956916 0.07393748
0000d0 37 5a 6e be b9 c6 1a 3f 6e e5 a3 3d df 3c 0c 3f
       -0.23276602 0.60459477 0.080027446 0.5478038
0000e0 49 c2 d2 bd 3d a6 92 3e ea 32 30 be e5 33 ab be
       -0.10290963 0.28642455 -0.17206922 -0.3343803
0000f0 f3 49 a4 3e 38 53 27 be 02 37 0e 3d 6c 29 56 be
       0.3208767 -0.16340339 0.03472043 -0.20914239
000100 8f 43 42 3d 7f e5 ab be e9 70 e2 be 09 99 ee 3d
       0.04742771 -0.3357353 -0.4422677 0.11650283
000110 52 58 b8 3e 2e 20 a5 be 5c e9 ff 3d 22 da 14 3f
       0.36004883 -0.32251114 0.12495682 0.58145344
000120 0e da 66 bd f5 86 c0 3e 5d 2e 3e be 9c 21 3e 3e
       -0.056360297 0.37602964 -0.18572374 0.18567508
000130 b0 7c 08 3f d9 a7 f1 be c2 ab ce 3e 78 37 c2 be
       0.5331526 -0.4719837 0.40365416 -0.37932944
000140 d0 35 31 3c 6b b3 88 3e f1 0f 0e 3e e6 62 05 3e
       0.010816053 0.26699385 0.13873269 0.13026008
000150 89 f7 95 bd 64 c2 7a be 7d 7c a5 3e e0 75 95 3e
       -0.07322604 -0.24488217 0.3232154 0.29191494
000160 ed 30 6f be 86 44 93 3e 4e 63 bb 3e dc c5 f3 be
       -0.23358507 0.28763217 0.365992 -0.47611892
000170 fb 05 dc bc a5 0f 34 bd a8 2c 4c 3e 59 82 7a bd
       -0.02685832 -0.043960232 0.1993891 -0.061159465
000180 14 68 b4 be 32 36 07 be c0 03 8b be 52 ee c4 3e
       -0.35235655 -0.13204268 -0.271513 0.38463074

running_var f4 [100]
000000 05 9b 8d 3d e7 43 6b 3d 6e 63 7c 3d cc 1e 8c 3d
       0.06914333 0.057437804 0.06161826 0.068418115
000010 05 c8 a7 3d 13 ef 67 3d 31 ab 63 3d 08 6a 03 3e
       0.081924476 0.056624483 0.055583183 0.12833416
000020 14 18 9a 3d 87 5c 56 3d 73 94 55 3d 03 bc ac 3d
       0.07524124 0.052334335 0.052143525 0.08434298
000030 ba 41 b2 3d f7 98 75 3d d8 05 38 3d 2a 27 d7 3d
       0.087039426 0.05996033 0.044927448 0.10505517
000040 3b f4 c2 3d e0 bc 40 3d df d8 9b 3d 03 1b 55 3d
       0.095192395 0.047055125 0.07609724 0.052027714
000050 03 66 24 3d 96 60 8a 3d bf 18 3a 3e 68 b2 39 3d
       0.04013635 0.067567036 0.18173502 0.045336157
000060 e6 25 89 3d f9 32 09 3e 87 fc 5b 3d 9b 04 9e 3d
       0.06696682 0.13398351 0.053707626 0.07715722
000070 8f ad a3 3d 12 15 9a 3d cd 2f c3 3d ee 29 7d 3d
       0.07992088 0.0752355 0.09530602 0.061807565
000080 49 43 d7 3d 78 ee 65 3d 82 f6 9e 3d e1 dc 8c 3d
       0.105108805 0.056135625 0.077618614 0.06878067
000090 c6 01 a4 3d 9b e8 ba 3d 25 c9 bf 3d 63 2c a0 3d
       0.08008151 0.09126397 0.09364537 0.07820966
0000a0 57 6d 9f 3d bc e8 3c 3d ae 0e 3c 3d fe 03 16 3e
       0.07784527 0.04612039 0.045912437 0.1464996
0000b0 ad e0 8e 3d 67 a1 06 3d 2c 2e 52 3e 46 84 82 3d
       0.06976447 0.03286877 0.20525426 0.063728854
0000c0 f6 c3 66 3d 21 5f 49 3d c9 4d 0b 3e 8a c7 4c 3d
       0.056339227 0.049162988 0.13603891 0.049994983
0000d0 e1 e8 45 3d dc 02 1f 3e b0 4a 6f 3d ef 55 25 3e
       0.048317794 0.15528435 0.058420837 0.16146062
0000e0 21 98 95 3d 73 89 99 3d 2e 41 8e 3d fd fc c7 3d
       0.07304407 0.074969195 0.06946026 0.097650506
0000f0 5e ea 15 3e 3e eb d2 3d e8 ec 5c 3d c8 fc 74 3d
       0.14640185 0.10298775 0.05393687 0.059811383
000100 b0 c9 82 3d 72 70 92 3d e4 7a b6 3d 14 e6 8a 3d
       0.06386125 0.071503535 0.08910158 0.06782165
000110 ae 8f c5 3d 7f 39 79 3d c6 2a ad 3d 30 fc 05 3e
       0.09646545 0.06084585 0.08455424 0.13084483
000120 f0 bc 7d 3d f8 bf ca 3d 9d ad 05 3e 8e 3f c5 3d
       0.061947763 0.098998964 0.1305451 0.09631263
000130 15 a5 0c 3e 78 25 b4 3d 1a 98 d8 3d 6a 82 a4 3d
       0.13734849 0.08796209 0.10575886 0.08032687
000140 7e fb 7d 3d c9 8c 88 3d 77 5e 9b 3d 58 a7 38 3d
       0.06200742 0.06667478 0.07586377 0.045081466
000150 47 73 aa 3d c9 e9 d6 3d d1 2f 92 3d 26 bf 96 3d
       0.08322769 0.1049381 0.071380265 0.073606774
000160 1e ef ce 3d e5 13 64 3d 41 36 5c 3d 8c 29 a3 3d
       0.10104202 0.055683035 0.053762678 0.07966909
000170 30 37 95 3d 81 9c b6 3d 31 9d 88 3d ae 2f 9f 3d
       0.07285917 0.089165695 0.06670607 0.07772766
000180 25 4d 0a 3e ee 97 6a 3d 4e 9e f6 3d 79 a8 ba 3d
       0.13505991 0.057273798 0.12041913 0.09114165

weight f4 [20, 100]
000000 c4 82 a5 bd 64 bc 62 3d 1a fe 2c bc 93 d9 90 bd
       -0.08081582 0.055355445 -0.010558629 -0.07072749
000010 35 63 d9 bd ef ef 8c bd f4 9a 94 bd e9 b7 4e bb
       -0.10614625 -0.06881701 -0.072561175 -0.0031542724
000020 d7 02 8f 3d f9 3b 36 3c e6 e0 99 bb eb 7f 62 bd
       0.069829635 0.011122697 -0.0046959994 -0.055297773
000030 17 9e cf bd 23 3e 30 3d 5d 94 8e bd ab ea 8b 3d
       -0.10137575 0.04302801 -0.06961892 0.06831869
000040 47 8c 43 bd d3 e4 5e 3d b5 4c 4c 3c 64 c0 ec bd
       -0.0477412 0.054417443 0.01246946 -0.11560133
000050 11 b7 14 bd 4f de 4a 3d b2 ac 4a 3d 02 7d 0b bd
       -0.0363074 0.049528416 0.0494811 -0.034054764
000060 da af a2 3c 5a 97 96 bd ec c5 0d bc 5c f4 ed bd
       0.019859243 -0.07353087 -0.008653145 -0.116188735
000070 f1 15 b0 3d b4 90 e9 bc d3 37 42 3d 84 5b f5 3d
       0.08597935 -0.028511383 0.04741652 0.11980346
000080 96 19 52 bc 8c 7d 43 3d e8 56 e4 3c 65 fb eb 3c
       -0.012823483 0.047727153 0.027873471 0.028806398
000090 76 33 ca 3b c5 d7 4d 3d 50 02 54 bc 8b f3 3a 3d
       0.0061706854 0.050254602 -0.0129400045 0.045642417
0000a0 14 e2 0a bd 6a 73 05 3d e6 cf b5 bc 28 e3 2c 3d
       -0.03390701 0.03258077 -0.02219386 0.04220882
0000b0 04 e0 da bc 5e 4a e8 3c 45 86 26 3b bc 0c 14 bd
       -0.026718147 0.028355774 0.002540962 -0.036144957
0000c0 26 fe 66 3d 3e d6 4c 3d 5f 12 46 bd 70 77 46 3c
       0.05639472 0.050009005 -0.048357364 0.012113437
0000d0 b4 a9 ca 3c ea 54 5c bd 06 60 89 3d fe ea a5 3d
       0.024739124 -0.053791918 0.06707768 0.08101462
0000e0 64 75 0a 3d f5 49 cb 3d fb 18 43 bd 2e 57 fb 3d
       0.03380336 0.099262156 -0.047631245 0.122724876
0000f0 5c 84 89 3d 5e e7 9e 3d 99 3e 20 3c 15 5f 9b bd
       0.06714699 0.077589735 0.009780549 -0.07586495
000100 b1 48 d0 bc d8 c7 52 bc 4c 52 0e bd 3f c6 5c 3d
       -0.025425287 -0.012865029 -0.034746453 0.0539
000110 07 79 df bd 84 c5 9c bd c3 21 a4 bd b2 18 85 bb
       -0.10911756 -0.076548606 -0.08014252 -0.004061782
000120 ca f6 3e bd 1a 26 00 bd 97 55 8b 3c 8c b2 24 3d
       -0.046622075 -0.031286336 0.017008586 0.040209338
000130 a8 b5 ad 3d b8 7e 62 bd 4e 3d d9 bc 3e 22 d4 3d
       0.08481914 -0.05529663 -0.02651849 0.10358094
000140 77 6c fa 3d 17 8d b5 3d 6a ac a3 bd 9e 06 0c bd
       0.12227719 0.088648014 -0.0799187 -0.034186
000150 48 43 6b 3d 4d ea a8 3c 5d ee 22 3d 15 2f 80 3d
       0.05743721 0.020619536 0.039778102 0.0625898
000160 10 04 0e bd 03 b9 54 3d 8e 4d 32 3c a7 a7 57 bc
       -0.034671843 0.051934253 0.010882748 -0.01316253
000170 13 b0 af 3d 64 a4 49 3c f5 78 73 3d 3e 03 4a 3c
       0.08578505 0.01230726 0.059441525 0.012329875
000180 6a 97 e1 bc ef fe a2 3d c4 bf 57 bd c3 d2 7a bd
       -0.02753802 0.07958781 -0.052673116 -0.061236154
000190 6b 3b 50 3d 35 e7 24 3d c7 fe cd bd d3 58 98 3a
       0.050837915 0.04025956 -0.100583605 0.0011623151
0001a0 96 97 0a bd 98 cf 67 3d 2f ed a2 bd c1 4b 9d bd
       -0.03383597 0.05659446 -0.079553954 -0.076804645
0001b0 64 dd dc bc 96 c9 bd 3d 98 57 05 3c be 38 cf bd
       -0.026961036 0.09266965 0.00813856 -0.101182446
0001c0 b8 e3 65 bd c6 a3 19 3d dd 02 47 3d 5e fd af 3d
       -0.056125373 0.037509702 0.048586715 0.08593248
0001d0 90 06 01 3d 9f 06 a9 3d 6a db 43 3b 8c 91 34 bc
       0.0315004 0.08253216 0.002988542 -0.011021029
0001e0 1a 18 3d bc 81 e5 9c 3d 64 d1 ac bb a1 22 e0 3c
       -0.011541391 0.07660962 -0.0052739847 0.027360262
0001f0 da db b0 3c 69 5e 68 bd 5a 02 04 bc 9d 07 6c bd
       0.021589208 -0.05673066 -0.008057201 -0.057624448
000200 cf b8 96 3d 5e f3 eb 3b e6 46 0e 3d fa db a8 3d
       0.07359468 0.0072006425 0.034735583 0.08245082
000210 9a ab cc bc fc a3 8e 3d 2e d8 15 bd ed 42 61 bd
       -0.02498417 0.06964871 -0.03658312 -0.054995466
000220 88 91 52 3d 13 f7 96 bc e0 73 74 3d 94 06 a2 bb
       0.05140832 -0.018428361 0.05968082 -0.004944632
000230 43 47 ad 3c 44 48 74 3d 4c 44 99 3c 92 24 11 bd
       0.021152144 0.05963923 0.018709324 -0.035435267
000240 38 76 db 3d 30 09 94 bd 67 69 9a bd 08 e1 88 3d
       0.10715908 -0.07228315 -0.07539635 0.06683546
000250 6c 31 c5 bd 4c 0b 1f bd 11 3e 9b 3d d4 2e 9f bd
       -0.09628567 -0.038829133 0.075801976 -0.07772604
000260 7e e6 ab 3d 7f 13 ad 3d fe e5 94 3d ac 93 46 bc
       0.08393572 0.08450984 0.0727043 -0.012120169
000270 15 22 3c bd 75 cd 81 3d 2a d7 1a bd d5 a7 4e bc
       -0.04593094 0.06338016 -0.037802853 -0.012613256
000280 66 98 b5 bd 1c 11 66 bd 04 f9 06 bd 79 27 36 bd
       -0.08866958 -0.05616866 -0.032952324 -0.044471238
000290 17 99 9a 3d 2f 2f 80 3b 6d 78 bf bd 67 43 71 3d
       0.07548731 0.0039118747 -0.09349141 0.05890217
0002a0 1e 34 45 3d 7f db 0b bc 39 9b 2a bc c0 61 ba bd
       0.048145406 -0.008536219 -0.0104129845 -0.091006756
0002b0 d5 82 62 3c 16 94 87 3d 60 a1 4a bd af 01 a9 bd
       0.013825138 0.06620042 -0.049470305 -0.08252274
0002c0 0b f5 ca 3c 88 df a0 bd 4c bd 1e bd 18 e4 87 3d
       0.024775049 -0.07855135 -0.038754746 0.06635302
0002d0 22 d6 91 bd eb ce 87 bd 5c fa 90 3d 77 07 17 bc
       -0.07120921 -0.06631263 0.07079002 -0.009218088
0002e0 c6 c1 a0 3c ca 9f b4 3d 8b cc 76 3c 94 02 98 bd
       0.019623648 0.0881954 0.015063415 -0.07422367
0002f0 2b 9e b6 bc 6d 72 d0 bd 1e 77 70 bc 31 e0 09 3b
       -0.022292217 -0.10178075 -0.014676837 0.002103817
000300 2d 19 8b bd 5c 40 7c 3d 3a d7 86 3d 22 35 1a bc
       -0.06791911 0.061584815 0.0658402 -0.009412082
000310 ac a4 b8 3d cb ac 1b 3c c5 7a 6b 3c 23 02 5f 3c
       0.09015784 0.009501646 0.014372532 0.013611349
000320 6e 8d 3a 3d 34 4e 81 bc d3 64 9f 3d 95 70 b8 bd
       0.045545034 -0.01578436 0.077829026 -0.09005848
000330 59 c3 52 3d 10 bc 83 3d dc 96 53 3d d8 1e 33 bd
       0.05145583 0.064323545 0.051657543 -0.043730587
000340 e5 4e 99 3d 61 e1 2b 3b 96 b4 5f bd 9b 74 ea bd
       0.07485751 0.0026226866 -0.05461558 -0.11448022
000350 0f d1 02 3d 9f b3 b3 bc cf bf c1 bd fd 9c 16 3d
       0.031937655 -0.021936236 -0.09460413 0.03677081
000360 5b 4b c2 3d 10 5c 57 bd a1 1c 7a bd 1a cc 49 bb
       0.09487029 -0.052578032 -0.06106246 -0.003079182
000370 e8 96 13 bd e9 38 64 bc 5a cf a7 bd 81 86 e9 bd
       -0.036032587 -0.013929584 -0.08193846 -0.11402608
000380 7e 65 3d bd 27 07 e8 bd c6 f1 30 3d 53 09 42 3d
       -0.04623937 -0.11329489 0.043199323 0.047372174
000390 27 4b d1 3c 88 eb 0a 3d cb 10 0f 3d 21 3f 21 bd
       0.02554853 0.033916026 0.034928124 -0.039366845
0003a0 d3 2d c2 bc 1d 09 16 3c 0a 05 2a bc 25 72 93 bd
       -0.023703491 0.009157446 -0.010377178 -0.07199506
0003b0 2d 7b bc 3d 31 54 75 bd d0 fe 74 3d 2d d3 e1 bc
       0.092031814 -0.059894744 0.05981332 -0.027566517
0003c0 1f 3b d8 3d e9 7e b2 bc 5f 9f 57 3c 6b 7a e0 bd
       0.105581515 -0.021789031 0.013160556 -0.109608494
0003d0 e1 b6 7a bd 39 3a 89 3c f6 77 9d 3d 85 d6 7b bc
       -0.061209563 0.016751396 0.07688896 -0.01537097
0003e0 0a d5 1c bd 4b f4 33 3d 0d 0f 77 bc 7c 72 5f 3c
       -0.038289107 0.043934148 -0.015079272 0.013638135
0003f0 86 db 97 bd 4b a0 91 bd 26 42 a4 3d 9b 1c c2 bd
       -0.07414918 -0.071106516 0.08020429 -0.09478112

bias f4 [20]
000000 73 ae 89 bc 5a b2 ce bc c1 14 b6 bc 67 90 d7 bd
       -0.016806817 -0.025231529 -0.022226693 -0.105255894
000010 62 26 2b bd 4c d7 b3 3c 1e 1c 18 3d 2d 86 a7 3c
       -0.04178465 0.021953247 0.03713619 0.020449722
000020 89 50 a0 3b 6e 90 0d 3d 58 10 92 3d ec ab af 3d
       0.004892413 0.034561567 0.071320236 0.08577713
000030 3d 10 ed bc 10 49 e4 bb c2 c7 90 bc b9 31 2c 3d
       -0.028938407 -0.0069667175 -0.017673377 0.042039607
000040 1b b1 83 bd 3b 3b e0 3c c3 72 e6 bd c1 10 9e bd
       -0.064302646 0.027371993 -0.11252358 -0.07718039

weight f4 [20]
000000 d6 dd 93 3f 15 2d 81 3f 54 06 7a 3f 47 2b 7a 3f
       1.1552074 1.0091883 0.97665906 0.97722286
000010 c5 89 7a 3f 09 1a 7b 3f 7f de 82 3f ce 81 73 3f
       0.9786647 0.980866 1.022415 0.9511994
000020 2a 21 83 3f 14 9a 7d 3f 91 89 7c 3f 6e c5 72 3f
       1.0244496 0.9906323 0.9864741 0.94832504
000030 11 aa 80 3f d9 b2 75 3f 9d bb 84 3f 92 01 75 3f
       1.00519 0.95976025 1.0369755 0.9570552
000040 3b c4 72 3f ad fc 7e 3f 03 5e 70 3f a3 fd 7d 3f
       0.94830674 0.996043 0.9389345 0.99215144

bias f4 [20]
000000 0e ca 6d 3e 32 36 bb 3d 22 cd 3f bc 15 f8 75 3d
       0.23221609 0.09141196 -0.011706622 0.060051043
000010 42 3d 30 3c 9e d7 89 bd c0 c0 15 be 36 9f ad 3c
       0.0107567925 -0.06730579 -0.1462431 0.021194082
000020 50 c1 04 be 38 8b 85 bd f7 38 f6 bd ed b6 4a bd
       -0.12964368 -0.065206945 -0.12022584 -0.049490858
000030 9a 3a 1f 3d 9f ec a4 bd bb 61 39 be 78 20 05 bd
       0.038874246 -0.080529444 -0.18103687 -0.032501668
000040 78 5c 0d 3d 4f 4c ea bd c9 50 a2 3d 08 c4 0c be
       0.034512013 -0.11440336 0.07925565 -0.13746655

running_mean f4 [20]
000000 2a 91 d3 3d 3c 5d d8 3b 20 4a 8d be a9 68 8e bd
       0.10330422 0.0066029113 -0.27595615 -0.06953556
000010 97 29 9b bd 38 c0 c4 3d 7d 5f 7e 3c 97 d7 ee bd
       -0.07576292 0.09606975 0.015525696 -0.11662214
000020 76 74 92 3e 3e 31 25 3d c1 6d 36 3e eb 7f be bd
       0.28604478 0.040330164 0.17815305 -0.09301742
000030 27 1f 06 be fe 2c 4a be 21 39 0c 3d 09 6f 2c be
       -0.13097821 -0.19743726 0.03423417 -0.16839232
000040 73 6f a0 3e c4 ba 89 be ee 9a 8c be 61 38 1d 3e
       0.3133503 -0.26900303 -0.27461952 0.15353538

running_var f4 [20]
000000 a4 d8 7d 3e df ab 0e 3e f8 05 cf 3e 26 51 3b 3e
       0.24789673 0.13932751 0.4043424 0.18292674
000010 e1 a7 4c 3e fa aa 80 3e e0 2f 81 3e 88 eb 68 3e
       0.19985916 0.25130445 0.25231838 0.22746098
000020 84 03 3c 3e 4b 21 99 3e b9 ff 93 3e 2e 24 0e 3e
       0.18360716 0.29908213 0.28906038 0.13880989
000030 ab 1b 9a 3e b0 b7 a2 3e da 7e 6d 3e 37 cb 36 3e
       0.30099234 0.31780767 0.23192921 0.17850958
000040 5c f4 51 3e fa bd 57 3e ff c7 4e 3e e3 ef 23 3e
       0.20503372 0.21068564 0.2019348 0.16009478
